data_processing/noMovement_respeck_model.tflite (tflite, 653504 bytes, 8 tensors)

sequential_1/dense_3/BiasAdd/ReadVariableOp f4 [13]
000000 92 32 09 be b0 e5 85 3e 96 c6 aa 3d 10 fa 99 3d
       -0.13398197 0.261518 0.083386585 0.07518399
000010 ba 0f a9 3c 0a fa 0c bd 9f 40 19 bd 20 28 5e bf
       0.020637382 -0.034418143 -0.037415143 -0.86779976
000020 33 86 80 3d 2b e0 1b be 73 0a e5 3d f8 01 cf 3d
       0.062755965 -0.15222232 0.11183634 0.101077974
000030 2f 3c 44 3e
       0.19163583

sequential_1/dense_2/BiasAdd/ReadVariableOp f4 [100]
000000 74 fe 9d 3d 53 23 65 3c 94 ca d8 bc 71 0d 43 bd
       0.07714549 0.013985473 -0.026463784 -0.04762024
000010 0f ec bf bd 2b 0b 9c bc 23 b0 21 be 86 d6 ac be
       -0.093711965 -0.019048294 -0.15789847 -0.33757418
000020 52 e9 e0 bc aa f2 ee 3d 68 37 53 bd 5e 41 b6 3d
       -0.027455006 0.11667378 -0.05156651 0.088991866
000030 f6 9e 82 be 1d 30 d4 3d 64 ac e0 bd c5 7f 4a be
       -0.25511903 0.103607394 -0.10970381 -0.19775303
000040 43 61 05 3e 8e d4 4c bd a4 44 c7 3c 2f fc 80 3d
       0.13025384 -0.050007395 0.024324723 0.062981
000050 e5 b0 27 3d 6d a5 48 bd e3 e6 a4 bd b3 ce 5c 3e
       0.040940184 -0.048985887 -0.08051851 0.21563224
000060 be 95 e6 be bf a7 94 bd e2 83 82 be b8 7f 68 3d
       -0.4503612 -0.072585575 -0.25491244 0.056762427
000070 a1 13 61 be 82 5c c1 bd 46 d2 17 3e b4 f6 2c 3d
       -0.21980144 -0.094414726 0.14826307 0.042227462
000080 b6 9f 64 be d8 f2 62 bd 1c a4 85 bd 67 37 85 be
       -0.2232655 -0.055407375 -0.06525442 -0.2601883
000090 4a 81 10 3d cc 65 2d be 1a ca 80 be c5 b8 0e 3e
       0.03527955 -0.16933364 -0.2515419 0.13937671
0000a0 76 99 59 bd cd a5 61 3d 11 47 4c bd c9 8f 60 3d
       -0.053124867 0.05508976 -0.04987246 0.054824624
0000b0 d9 f9 a1 3d 89 88 37 3e 24 4a e1 3d 6c c4 26 3c
       0.07908983 0.17923178 0.11000469 0.010178667
0000c0 8b 8c 09 3e a2 a8 8f be 7d 09 a7 3c 9f 51 b3 3d
       0.13432519 -0.28058344 0.020390267 0.08755802
0000d0 20 bb 03 3e 5a 70 0d be 22 c7 6a 3e 35 58 fa 3c
       0.12864351 -0.1381239 0.22927526 0.030559639
0000e0 bf 35 8d 3d 98 91 53 bd 74 5d 55 bd ee fe 05 bd
       0.06895017 -0.05165252 -0.052091077 -0.032713823
0000f0 6a 64 91 be bf 9b b9 be 92 1d 4a be 6b 7d 1c be
       -0.28396922 -0.36251637 -0.19737843 -0.15282218
000100 90 32 54 3d 59 36 f0 3d 07 9e 5a 3d 20 19 f1 bd
       0.051806033 0.11729116 0.053373363 -0.1177237
000110 d0 f4 a5 3d 9c 95 ac 3c 60 09 a5 bd 97 cc 2f 3e
       0.08103335 0.021067433 -0.08058429 0.17167889
000120 45 fb 99 3d 3a c6 44 bd 67 d5 9a bd 91 05 b8 3d
       0.07518629 -0.048040606 -0.075602345 0.08985437
000130 df b7 06 3c db 83 8f 3c 56 a0 df 3d 3c c3 61 3d
       0.008222549 0.017518928 0.109192535 0.05511783
000140 a3 d0 20 bd ec 82 5c bc 91 74 93 bc c1 bd 17 3e
       -0.03926147 -0.013458949 -0.01799992 0.14818479
000150 00 53 94 3d 05 f1 03 3c 31 2f f0 3c f6 44 1e be
       0.072423935 0.008053069 0.029319378 -0.15455994
000160 30 26 73 3e 33 88 b4 bd d9 90 8f bd 36 bb b4 3d
       0.23745036 -0.088150404 -0.070100494 0.0882477
000170 23 fe ad bd 99 6e e2 3d f2 9f d6 bd 81 08 c9 bd
       -0.08495738 0.11056251 -0.10479726 -0.09816075
000180 78 ca 6f bd e2 b5 fa bd e3 d1 36 be f8 84 41 3d
       -0.0585427 -0.12241723 -0.17853503 0.04724595

sequential_1/conv1d_3/BiasAdd/ReadVariableOp f4 [64]
000000 da 18 b7 3d 25 39 df bd 32 5f 1e 3d 36 4d f8 3a
       0.08940287 -0.10899571 0.038665004 0.0018943909
000010 ef 7b c6 bc 21 be 09 be a5 ed 80 3d ad f6 5d bd
       -0.024229018 -0.13451435 0.06295327 -0.054190326
000020 82 7c 63 be 2b 07 82 bd 31 0f 25 be ce 2f 5c be
       -0.22215465 -0.063490234 -0.16119076 -0.21502611
000030 b6 90 c5 3d eb 68 18 3d 55 0f cc 3d 71 cd c4 be
       0.09646742 0.037209433 0.09963862 -0.3843799
000040 ba 83 83 be 7a 78 df be 86 ab 0c be af 31 09 bd
       -0.25686437 -0.43646604 -0.13737306 -0.033494648
000050 92 08 83 3d 59 7a ff be f9 03 4f 3e 87 3b 9c 3d
       0.06398119 -0.4989803 0.20216359 0.076285414
000060 af 71 aa bd 08 bb 2a be 7c 4b 84 3d 7f 66 67 be
       -0.08322465 -0.1667291 0.0645971 -0.22597693
000070 0d f0 f5 bc 54 03 27 bc 26 b7 1e 3c 9d bc d9 3d
       -0.030021692 -0.010193665 0.009687221 0.10631678
000080 b4 e2 87 bd cd 78 e9 3d e6 c7 a1 be 05 33 85 be
       -0.06635037 0.11399994 -0.31597823 -0.26015487
000090 98 75 99 3d e9 79 8d bd f3 7a 5c bb 10 18 9c 3d
       0.07493132 -0.06908018 -0.003364262 0.07621777
0000a0 4f 15 63 3d d3 1b 97 be 28 e0 25 3e 96 4a 69 3a
       0.055440243 -0.29513416 0.1619879 0.0008899359
0000b0 21 49 67 3c e8 7d 41 3c 84 b6 9f 3d 5f d1 ae 3b
       0.014116556 0.011809804 0.07798484 0.0053350176
0000c0 e1 df 4e 3d aa 78 ad 3c ed 8a 61 3d c7 a7 86 be
       0.050506476 0.021175701 0.05506413 -0.2629988
0000d0 5f 78 54 be e3 48 98 3c 86 f6 21 bd 72 26 58 3b
       -0.20749043 0.018589443 -0.039541744 0.00329819
0000e0 06 e2 c3 3d cd 67 18 3c 95 a6 f4 3d e9 a5 5a 3d
       0.09564595 0.009302092 0.119458355 0.05338088
0000f0 c9 62 7d bd 75 88 37 3c 70 2d d6 be 65 07 a7 bd
       -0.061861787 0.0112019675 -0.4183154 -0.08155707

sequential_1/conv1d_2/BiasAdd/ReadVariableOp f4 [64]
000000 92 2b aa be de fd d9 bd 0e 99 a6 be de 43 52 bd
       -0.33236367 -0.106441244 -0.32538646 -0.051334254
000010 2a 2b cd 3c 66 aa 83 bd ca ed d7 bd 4f 95 94 be
       0.025044996 -0.06428985 -0.105434015 -0.29020163
000020 cf 29 c7 bd 06 29 ee bd a4 dc 8b 3d 28 53 88 bd
       -0.09724771 -0.11628918 0.06829193 -0.06656486
000030 ea cf a7 3c 68 78 df 3c f4 a2 02 3e 7f 1f 7a be
       0.020484883 0.027279094 0.12757474 -0.24426077
000040 7c 4d 25 bd 80 88 1a 3c 7a 60 ef bd 74 bc 5a 3d
       -0.040357098 0.009431958 -0.11688323 0.05340238
000050 0a 63 01 3d 1a 46 fc 3c d8 99 42 bd 89 de 80 bd
       0.03158859 0.030795146 -0.047509998 -0.06292445
000060 b9 a8 73 bd b4 3c b1 be 2b 27 af 3c 91 47 ab 3c
       -0.05948708 -0.34616625 0.021380981 0.020908149
000070 81 6a 03 bd 8c 9e f3 bc b8 f0 65 3d 9a ff 04 be
       -0.032083992 -0.029738687 0.05613777 -0.1298813
000080 59 b7 5b bd 67 ea 92 bd fd 6c 2e bd 79 f9 9d bd
       -0.05364165 -0.07173615 -0.042584408 -0.07713599
000090 c4 3a df 3c 70 c6 ff 3d 05 5e 2c bd 03 b8 d5 bd
       0.027249701 0.12489021 -0.04208185 -0.10435488
0000a0 16 cd a3 b7 ef 0e dc 3d fe 85 81 bd 20 3d 62 3c
       -1.9526615e-05 0.10745036 -0.06324385 0.013808519
0000b0 43 89 5d bb 27 ee e2 3a 25 ca 54 3d 86 e6 d7 bc
       -0.0033803738 0.0017313407 0.051950593 -0.02635504
0000c0 5e 20 de bd 00 77 da 3d 9a c7 2c 3c d0 99 72 be
       -0.10846017 0.10667229 0.010545636 -0.23691487
0000d0 91 22 9b 3a 27 23 ef bc 19 1a 92 bd 8c 42 0c be
       0.0011835863 -0.029191567 -0.07133884 -0.1369726
0000e0 e2 85 91 bd e7 ff 02 be f8 90 a8 bc 29 c2 ea bc
       -0.07105614 -0.12792931 -0.020576939 -0.028657036
0000f0 c1 b8 0c be 17 57 86 bd 93 fb d5 3d 7d 45 2c 3b
       -0.13742353 -0.0655958 0.104483746 0.0026286535

sequential_1/dense_2/MatMul f4 [100, 1472]
000000 c4 9f 85 3d c5 e0 48 be b7 49 89 3d bf b7 82 bc
       0.065246135 -0.19616993 0.06703513 -0.015956758
000010 b7 63 35 3d 9e 29 80 3d 8f a6 de be 65 cd 06 be
       0.04428455 0.06257938 -0.4348645 -0.1316429
000020 2f ab ab bd 2b 94 72 be 80 51 27 3a b0 04 dd 3c
       -0.0838226 -0.23689334 0.0006382689 0.026979774
000030 82 66 78 bc 60 e0 12 3e 64 44 f3 bd 87 df c5 bd
       -0.0151611585 0.14343405 -0.11878279 -0.09661775
000040 26 78 80 bd 10 3b 2b 3e a2 9b 9f 3e f5 13 09 3e
       -0.062729165 0.1672175 0.31173426 0.13386519
000050 af b1 17 bd d5 e5 68 bb 53 3e ea be 88 ee 36 be
       -0.037034687 -0.0035537381 -0.45750675 -0.1786443
000060 b7 a0 12 be 49 ee 04 3d 9f f4 40 bd 07 9c 86 3d
       -0.1431912 0.03245381 -0.04710829 0.065727286
000070 1a 40 47 be 7c 5b 8a bd 1c d1 08 bd 5b 33 ef be
       -0.19458047 -0.067557305 -0.033402547 -0.4671887
000080 0a bb 28 3e 0a 23 11 bc a5 28 5f bd 92 5b bd bd
       0.164776 -0.008858452 -0.05448212 -0.09245981
000090 c6 71 db bd 93 93 e5 bc 28 c9 9c 3d a8 8d 68 3d
       -0.1071506 -0.02802447 0.07655555 0.05677572
0000a0 7a 59 5f bd 78 81 ae bd 9e 68 69 bd 21 e9 c3 be
       -0.05452869 -0.08520788 -0.056984536 -0.382638
0000b0 89 d1 88 bd d2 0d 76 bc 92 a9 8e 3d af 1f d1 bd
       -0.06680591 -0.015017943 0.06965937 -0.10211121
0000c0 10 3d ab be d3 ca 9c bd f3 d8 90 3d 10 55 72 bd
       -0.33445024 -0.07655873 0.0707263 -0.059163153
0000d0 0f d8 56 bc b9 ec ac 3d a1 8f 85 bd b1 b4 b9 bd
       -0.013113036 0.08443589 -0.06521536 -0.09067667
0000e0 44 35 1e 3d ef 7b 93 3b 3c 31 eb 3d d9 4a 90 be
       0.038625017 0.004500858 0.11484 -0.28182104
0000f0 54 4b 95 bd 46 a1 e8 bc 1d 71 10 bd 26 ad 2e 3e
       -0.07289758 -0.028397214 -0.035264123 0.17058238
000100 08 0a 76 bd 18 76 87 be 97 23 d0 bc 55 8c 92 bd
       -0.06006816 -0.26457286 -0.025407596 -0.071556725
000110 23 7d 80 3e 0c b2 25 3d 47 58 90 be 7a f1 ae be
       0.25095472 0.040453 -0.2819235 -0.34168607
000120 96 34 d3 bc 2b c1 fb bd 96 08 7d 3b fd 4b a2 bc
       -0.02578191 -0.12292703 0.0038609854 -0.019811625
000130 f2 4b f0 bc 35 e2 e4 3d 9a 3b bf bd d4 c2 22 3b
       -0.029333089 0.11175958 -0.0933754 0.0024835365
000140 0f 03 f6 3d 91 26 3e bc 89 7e 65 3e c6 b0 0e 3e
       0.12012302 -0.011605875 0.2241155 0.13934621
000150 cb a3 83 bc 4d 4e a9 bd 70 3c d5 be 68 45 c5 be
       -0.016069314 -0.08266888 -0.41647673 -0.38529515
000160 41 11 bd bd 07 6f f1 3c e3 28 1e be 59 fc 78 3d
       -0.092318065 0.029471887 -0.15445285 0.060787532
000170 a7 4f 2e be ae 31 05 3b 0c 95 26 3d 74 be b1 be
       -0.17022572 0.00203238 0.040669486 -0.34715617
000180 2a 01 57 3e 94 87 41 bd c9 1f 67 bd a0 9a 80 bd
       0.20996538 -0.047248438 -0.056426797 -0.062794924
000190 b4 4a 47 be bb 16 1b bd d9 be 29 3d 86 7c 98 3d
       -0.1946209 -0.037863474 0.041441772 0.07445626
0001a0 38 83 3a 3e 06 fb 8a 3d e4 1c ca 3c d9 63 98 be
       0.18214118 0.0678616 0.02467198 -0.29763678
0001b0 a9 d5 f9 3c 72 1e 97 bd fc f6 82 bd 75 24 a5 bd
       0.030497389 -0.07378854 -0.06394765 -0.08063594
0001c0 8d 50 bd be 0d 19 cf bd fe 72 e6 ba 49 e0 31 3d
       -0.36975518 -0.101122 -0.0017581878 0.043426786
0001d0 f6 42 c5 bd 7e e9 49 bc f5 0e 3d 3e 02 fb 8f 3d
       -0.096319124 -0.012323735 0.18462737 0.07030298
0001e0 eb b4 28 3e 81 ef 89 bd 9c 09 af 3d 09 59 8f be
       0.16475265 -0.06735135 0.08546755 -0.27997616
0001f0 60 cf 24 3d e6 87 30 3d 9f f2 06 be 23 b3 13 3e
       0.04023683 0.043098353 -0.1317849 0.14423804
000200 82 f2 a2 bd 09 b1 40 be 96 0a 0e bd 27 08 68 3c
       -0.07956411 -0.18817534 -0.034678064 0.0141621
000210 20 c8 0b 3d d0 93 e7 bd 35 95 e1 be c4 ff c5 bd
       0.0341264 -0.1130749 -0.44059148 -0.09667924
000220 39 23 cd bc f2 46 99 bd 82 ec df 3c a2 1c b1 3c
       -0.02504121 -0.07484235 0.027334455 0.021620099
000230 40 a5 f6 bc e9 2e 23 3d 9a a3 15 be 36 5d d4 bd
       -0.030108094 0.03983966 -0.1461319 -0.10369341
000240 50 db 0f 3e b1 32 59 3e 92 b3 98 3d 10 a5 8f 3d
       0.14048505 0.21210743 0.07456125 0.07013905
000250 a1 47 01 bd cb f9 6e 3c 8e 16 db be 66 a0 b3 bd
       -0.03156245 0.0145859225 -0.42790645 -0.08770828
000260 50 c7 75 bd 7e 92 99 bd e5 b8 1a bd 53 fa b0 bd
       -0.060004532 -0.07498644 -0.037773985 -0.086414956
000270 8c 76 cd bd 7d dc 4f 3a 04 1a 84 3d 19 9b a3 be
       -0.10032377 0.00079292787 0.064502746 -0.31954268
000280 3f 75 25 3e fc 23 91 3d f6 c6 9f 3d 41 69 2e be
       0.16158007 0.070869416 0.07801621 -0.17032339
000290 32 39 95 be 75 3d 82 bd 26 bd 7c 3d a1 dd 06 3d
       -0.291452 -0.06359378 0.061703824 0.032926206
0002a0 38 97 35 3e cf a6 0e 3d 6e b0 3a bd 37 3c 9b be
       0.17733467 0.03482705 -0.045578413 -0.30319378
0002b0 d4 0d 3f 3d 10 18 2c be a3 2d 8a 3d b9 f5 44 be
       0.046644047 -0.16806054 0.06746986 -0.19234361
0002c0 3d bf 83 be 71 06 e0 bc d3 b7 fa bc 16 e5 5e 3d
       -0.2573184 -0.027346822 -0.030605232 0.054417692
0002d0 02 9f 36 bc 0c 0e 1b bd e9 18 83 bc 27 98 63 3d
       -0.011146309 -0.037855193 -0.016003089 0.055565026
0002e0 43 7f ff 3c d2 8d c4 3d 6c 54 24 3e 5e db 47 be
       0.031188613 0.095973626 0.1604783 -0.19517276
0002f0 97 6b 01 3d 92 08 fe 3d 60 66 94 bd 1a 2f f6 3d
       0.031596746 0.124039784 -0.07246089 0.12020703
000300 27 f7 00 bd 19 d1 b3 bc b2 74 e7 bc 6f e8 f3 3d
       -0.031485703 -0.021950291 -0.028253887 0.119095676
000310 94 66 5a 3d 22 bb a3 bd 8a 40 8d be 20 83 b4 bd
       0.053320482 -0.07994677 -0.27588302 -0.088140726
000320 93 fd 9f 3d 80 d2 e1 bd 5f d7 59 bd 59 8d b5 3c
       0.07812037 -0.11026478 -0.05318391 0.022162126
000330 6d bd 27 bd 94 aa 8b 3e 83 0f 01 be ce 8b a2 bd
       -0.040952135 0.27278578 -0.12603574 -0.07936822
000340 9a 12 ae 3e 66 cd d0 3d 90 20 a3 3d 72 fc 3d 3e
       0.33998567 0.10195427 0.07965195 0.18553331
000350 68 65 82 bd 4d 02 12 3c 05 d6 2e bf 78 8c 32 be
       -0.06366998 0.008911681 -0.6829532 -0.17436397
000360 44 29 a6 bd 8e b5 6c bc 35 0b a6 be 3b 93 ce 3c
       -0.081133395 -0.014447583 -0.32430425 0.02521669
000370 3b 5c 2b bd 26 ce ad 3d af 62 a0 3d d3 aa b6 be
       -0.041836005 0.08486585 0.078313224 -0.35677204
000380 61 99 a7 3c c0 b1 bb 3d 96 ee 1f 3d 6f 7b 2a be
       0.020458879 0.091647625 0.039045893 -0.16648649
000390 89 68 95 3c 37 ba 76 bd 96 d9 48 3c 27 3d 52 3d
       0.018238323 -0.060236182 0.012258908 0.05132785
0003a0 53 eb bb 3c 4c 37 57 bd d6 58 53 3c 82 49 0e bf
       0.02293936 -0.05254297 0.012899598 -0.55580914
0003b0 f8 d9 10 bd 0f 19 93 3d 50 aa aa bd 7d 7a 2f 3c
       -0.03536412 0.07182514 -0.08333266 0.010710356
0003c0 3a f1 eb bd 02 9e cc 3a 97 f4 03 bc 43 41 50 bc
       -0.1152062 0.0015611055 -0.00805392 -0.012710872
0003d0 f8 36 0e bd 77 91 86 bd de 92 f9 bd 87 c3 35 3d
       -0.03472039 -0.06570714 -0.12186216 0.044375923
0003e0 51 5e 5d bd bc c1 1b 3e 97 a5 58 3e 92 a8 c2 bd
       -0.054045025 0.15210623 0.21156918 -0.095048085
0003f0 6c 0c 65 be e8 16 ca bd ca c8 5f bd c4 0f 46 3e
       -0.2236802 -0.0986765 -0.054634847 0.19341952

sequential_1/dense_3/MatMul f4 [13, 100]
000000 48 61 d0 be 97 fb 52 3e 76 62 b3 bc b3 77 5e be
       -0.4069922 0.20603786 -0.021897536 -0.21725349
000010 41 39 d7 3d 4d 2d 47 3d 4f c0 86 3e 23 24 cc 3c
       0.10508967 0.048627187 0.26318595 0.024919575
000020 34 54 2f be 23 43 1d be f5 8d 2f be 7b cf 2a 3e
       -0.17121965 -0.15357642 -0.17143996 0.1668071
000030 be d8 7e bd a2 e2 f4 3d f5 01 29 3e 6d 21 8d bd
       -0.06221842 0.11957289 0.16504653 -0.06891141
000040 c0 0e 54 3d 19 af 08 3e 49 cf 5a 3e 43 a0 0c 3e
       0.05177188 0.13348044 0.21368136 0.1373301
000050 0b e5 48 bd 72 77 35 3d ca 74 36 3e d5 ed 90 3d
       -0.049046557 0.044303365 0.17817989 0.07076613
000060 95 57 2d 3b 11 9f 04 3d f4 d9 39 be 84 e8 71 3c
       0.0026449908 0.03237826 -0.18149549 0.014764909
000070 d9 7f 20 3b 02 b2 e5 3d 64 67 c6 bd ce fe c1 3d
       0.0024490266 0.11215593 -0.09687689 0.09472428
000080 b6 48 00 3e 13 be 33 be 32 4a cc 3d 3e 9f 09 3e
       0.12527737 -0.17552976 0.09975089 0.13439652
000090 96 6b 1b bd 18 d0 e7 3d cf b4 b1 3d 40 3f 2e 3e
       -0.0379444 0.113189876 0.086770646 0.17016315
0000a0 f6 30 5e bd bc c7 03 3d f9 b1 30 be c6 71 96 be
       -0.05424591 0.032172903 -0.17255391 -0.29383677
0000b0 e8 fb 81 be d0 1d 15 bf c0 3c 82 bd eb 74 f6 bd
       -0.25387502 -0.58248615 -0.063592434 -0.12034019
0000c0 ab 90 00 be dc 1e b6 bd ca fc cf be 72 5f 1f bd
       -0.12555186 -0.08892605 -0.4062255 -0.038909383
0000d0 98 8d a4 be c7 77 1c bd e7 b2 81 be 34 4a 3a be
       -0.32139277 -0.038200166 -0.25331804 -0.18192369
0000e0 ea b1 cf bd dc 36 6b be cf f1 17 3e 4c e6 cf 3d
       -0.10141356 -0.22970146 0.14838336 0.101513475
0000f0 4e 24 dd 3d 8d 4b 02 3e c2 a3 ed 3c 7c 9d 5f 3e
       0.1079794 0.12724133 0.02900875 0.2183742
000100 59 8c 4e 3d b3 24 16 be 62 11 06 3e fd e6 67 3e
       0.050426815 -0.14662437 0.13092569 0.22646709
000110 36 fe e5 3c 61 ef 94 bc 86 5b 75 be c1 a4 c9 be
       0.028075319 -0.018180551 -0.23960695 -0.3938351
000120 f2 69 51 3e 1b 98 99 3e 9d b9 67 bd ca 97 0e bc
       0.20450571 0.2999886 -0.0565735 -0.0087031815
000130 d4 16 0a 3e b7 60 82 be 37 7d 2b bd 56 47 be 3d
       0.1348527 -0.25464413 -0.04186746 0.0929095
000140 9e 3c 0a 3e ae fc 32 be 7b d1 67 be b5 39 e7 bd
       0.13499686 -0.17479202 -0.22638504 -0.112903036
000150 1f 2d 13 be b7 2f 5c 3d 76 d6 05 be e6 36 8b be
       -0.14372681 0.053756442 -0.13070092 -0.27190322
000160 42 6d 79 be e4 48 7e 3e 01 bd 5a 3d cf 35 a9 bc
       -0.24358085 0.24832493 0.053402904 -0.02065554
000170 b0 71 36 3e 8e b0 4a 3d ce e7 13 3d e7 1e 46 be
       0.17816806 0.049484782 0.036109738 -0.19347726
000180 0f bb 08 be a4 b0 dd 3a be 7d 32 3e fb 4a 8e 3c
       -0.13352607 0.0016913605 0.1743078 0.017369738
000190 7c c4 9e bd 65 cb 0c 3e 97 84 c2 3d 71 0a 19 be
       -0.0775232 0.13749464 0.09497946 -0.1494539
0001a0 7a 1d 54 3c 3d 97 16 3d df c2 d2 bd 45 67 df bd
       0.012946481 0.036765326 -0.10291075 -0.10908369
0001b0 ce 04 95 3d 46 a9 1b be f7 de 2b 3e e9 49 ba bb
       0.07276307 -0.15201291 0.16784273 -0.0056850803
0001c0 6f 5c 22 3e ae a0 65 3d 51 84 5b bd 10 30 25 3d
       0.15855573 0.05606144 -0.053592984 0.04032904
0001d0 5e ad cc 3d d4 f0 06 be 21 74 2b 3e 95 fe ac bc
       0.09994005 -0.13177806 0.16743518 -0.021117488
0001e0 02 3e e3 3d ed 95 07 be 18 78 cd ba 0d 55 af be
       0.110958114 -0.13240786 -0.001567605 -0.34244576
0001f0 99 05 5b be 8d ae c9 bb dd 4d 92 3d c7 df 2c 3d
       -0.21388854 -0.0061548413 0.071437575 0.0422056
000200 75 8f 0d 3e 81 43 cd bd 8c 1d 73 be 55 ff de bc
       0.13824256 -0.10022641 -0.2374174 -0.027221361
000210 53 be 0a be e6 02 48 3e 1b e7 e7 3d 45 7b 3c be
       -0.13549165 0.19532356 0.11323377 -0.18406399
000220 8f c4 66 be a7 70 ba bc 2e 57 3c 3e 64 82 3b 3e
       -0.22535919 -0.022758795 0.18392631 0.18311459
000230 bc cd 36 be 8f 54 0f 3e 27 30 43 bd 97 60 85 3d
       -0.17851919 0.139971 -0.047653344 0.06512564
000240 bb 26 2b be fb 9a a6 be f0 f3 a2 3d 83 6e 2f 3e
       -0.16713993 -0.32540116 0.07956684 0.17132
000250 6d 6c 79 3c 50 5e ec 3d 8a 36 d0 bd 67 6a e3 3d
       0.015223605 0.11541426 -0.101666525 0.11104279
000260 49 03 16 be e1 3d f3 3d 82 4f e2 bd 36 14 81 be
       -0.1464969 0.11877037 -0.11050321 -0.25210732
000270 f8 fb b4 3d d8 38 f5 3d 64 fe 8e bb 88 b3 fa 3d
       0.08837122 0.11973733 -0.004363822 0.12241274
000280 f2 4d 54 3e 86 2f 91 3d 50 39 15 be f4 22 04 3e
       0.20732859 0.070891425 -0.14572644 0.12903959
000290 a4 95 cf 3d e4 63 89 3b d3 21 c0 3d 0c 11 b4 bd
       0.101359636 0.004192816 0.093814515 -0.08792314
0002a0 24 fc 12 be 6d 38 16 be fc 4f ab bc a1 b3 8b bd
       -0.14353997 -0.14669962 -0.020912163 -0.06821371
0002b0 28 fb 9b bd e1 0c d9 bd 48 60 12 be cf c5 5a be
       -0.07616264 -0.105981596 -0.14294541 -0.2136452
0002c0 b6 55 45 3e e1 ac ee 3d 06 c3 1c bd 5a d0 5a bd
       0.19270977 0.11654068 -0.038271926 -0.053421356
0002d0 0a 36 4e 3e 6c f0 20 be 61 9e 3e 3e ab 8b 03 be
       0.20137802 -0.15716714 0.18615104 -0.12846248
0002e0 1d 0b c5 bd e0 33 e0 bd 5e 5c 4f 3e 5f 52 01 be
       -0.0962126 -0.10947394 0.20250079 -0.12629078
0002f0 7d bf fd be 29 99 ce bd 53 ca 1b be 33 eb 20 be
       -0.49560156 -0.10087807 -0.152139 -0.15714721
000300 26 20 3e 3e ce 80 38 3e 65 08 85 3d e4 bd 29 3e
       0.18566951 0.18017885 0.06495742 0.16576344
000310 5a 5a 4d be 7f c2 fc 3c ed be 11 3e 02 65 c3 3c
       -0.20053998 0.030854462 0.14232989 0.023851875
000320 41 9e 4c bf 66 66 2b 3e a7 c0 19 3e ae e7 9a be
       -0.79928976 0.1673828 0.15014897 -0.30254883
000330 e7 9a 48 3e 77 80 84 3c aa 27 4a be e6 ff 76 3d
       0.1959034 0.016174538 -0.19741693 0.060302638
000340 4d 95 0a 3d d4 ff 7a bd 31 fe 8b 3d fd 8a 02 be
       0.03383379 -0.061279133 0.068355925 -0.12748332
000350 cd a6 84 3d 8a e3 48 3e 76 70 c6 be 2f de 35 be
       0.06477127 0.1961805 -0.38757676 -0.17760538
000360 8e 80 33 3e b9 22 22 3e f9 68 32 3e be c0 8d bf
       0.17529508 0.15833558 0.17422856 -1.1074445
000370 a4 c2 a1 3e 53 1a 16 bd 18 9b 30 3d fb a1 be 3d
       0.31593812 -0.0366462 0.04311666 0.09308239
000380 0f 58 3e be b4 75 75 be f7 84 6a be e5 9f da 3e
       -0.18588279 -0.23970681 -0.22902285 0.42700115
000390 2f e6 00 3e 1d 8b b9 be a9 4f 2b bc 24 d8 a9 3c
       0.12587808 -0.36238948 -0.010456004 0.020732947
0003a0 e3 e8 80 be 43 e2 56 bf f3 09 a1 3d c2 59 dc 39
       -0.25177678 -0.83939 0.07863226 0.00042028545
0003b0 04 99 25 bd 3c 4d be 3d 83 52 b3 3d f8 15 8b bc
       -0.04042913 0.09292075 0.08755972 -0.016978249
0003c0 d1 18 16 bd 71 ad 3f be 09 3b 74 bd 67 c5 84 bd
       -0.03664476 -0.18718506 -0.059626613 -0.06482964
0003d0 7b e9 17 3e 0d 34 58 be 4b fa ba be 16 11 0b 3e
       0.1483516 -0.21113606 -0.36519083 0.13580737
0003e0 ee 1c 0d bf 95 0f d7 bc 2b b4 5c bd 2a 03 59 3d
       -0.5512227 -0.026252547 -0.05388276 0.052981533
0003f0 7e 68 d9 be c6 8b 6a 3e ec 0d 90 3e 28 23 80 bf
       -0.42462534 0.22904882 0.28135622 -1.0010729

sequential_1/conv1d_2/Conv1D f4 [64, 1, 3, 6]
000000 d3 ae bc 3e 72 a7 26 3f e3 19 33 be 31 a5 1c 3c
       0.3685213 0.6509925 -0.17490344 0.009560869
000010 a6 19 64 bd 30 e0 92 be 7f d1 ef 3e 8a f9 02 3f
       -0.055688523 -0.28686666 0.4683952 0.51162016
000020 94 17 79 be a1 d7 21 3e 1a 3b 9c 3c c8 6f 71 3d
       -0.243254 0.15804912 0.01907115 0.058944494
000030 3d 21 d7 3e 12 ef ad 3e 2f 7c bb be fc 34 a8 3d
       0.42017546 0.3397146 -0.36618182 0.08213231
000040 fd 00 f7 bc cc 8d 10 be c9 0c 57 3d 9c 06 2f be
       -0.030151838 -0.14116591 0.052502427 -0.17092365
000050 74 06 93 bd 3b 1b f1 bd fc 60 c9 3d 3f 41 70 bd
       -0.07178965 -0.11772772 0.098329514 -0.058655974
000060 e0 1c b5 3d fb f6 2d 3d 85 e1 b6 3d ac a7 d9 3c
       0.08843398 0.042471867 0.08929733 0.02656921
000070 aa c6 d0 3d 05 ab 52 3e 88 27 70 3e 9d 8d 24 be
       0.10194142 0.20573051 0.2345258 -0.16069646
000080 11 f7 75 3d a3 81 73 bc 89 be 54 be 29 c6 3f bd
       0.060050074 -0.014862451 -0.20775808 -0.04681984
000090 a9 7c d4 bd 6a 98 84 3e 48 3e 21 3e 67 51 6f 3e
       -0.103753395 0.25897533 0.15746415 0.23370896
0000a0 04 c8 24 3e 6a c1 f0 bd 82 f6 95 be e1 95 43 3c
       0.16091925 -0.11755641 -0.29289633 0.011937589
0000b0 b4 01 ea 3d 6f e6 1e be 13 9e 6e bd b0 bb 21 bb
       0.11426106 -0.15517591 -0.05825622 -0.002467852
0000c0 05 10 92 be af 32 f0 bd 9d 64 a5 bc 5d 4e 0d be
       -0.28527847 -0.11728417 -0.020189578 -0.13799424
0000d0 8e e6 1a be 92 49 33 be 31 ba 83 3e c5 48 04 bd
       -0.15127012 -0.17508534 0.2572799 -0.03229596
0000e0 89 ff 2f 3e 35 be 34 be 8c 79 29 bc 46 3d 28 be
       0.17187323 -0.17650683 -0.01034392 -0.16429624
0000f0 e9 59 2f 3e 72 f6 ed 3d 5b 0d ed 3d 03 c8 f8 bc
       0.17124142 0.11619271 0.11574813 -0.03036881
000100 8a 50 68 3d 1b 75 c0 3c 35 9d 96 3e f6 da 83 3e
       0.056717433 0.02349334 0.29416814 0.2575299
000110 8f 7a 3a 3e b3 ae 0f 3b 64 9d 3d bd dc 5d cb bd
       0.18210815 0.0021924197 -0.046292678 -0.09930012
000120 d1 19 cf 3b e1 a7 58 3f a0 59 e4 ba 73 17 07 3e
       0.006320216 0.8463116 -0.001742173 0.13192539
000130 31 20 8a 3d 7a 76 8d bd 64 91 65 be 7d 78 35 3f
       0.06744421 -0.06907363 -0.22418743 0.70886976
000140 91 ac d2 bd be 9b 03 3c bf ed dd 3d cc ef 26 3e
       -0.10286821 0.008032737 0.10836362 0.16302413
000150 41 0f a3 be 96 72 53 3f 89 71 82 3d fe 70 c9 3d
       -0.31847575 0.8259672 0.06369311 0.09836005
000160 2d 3a 57 3d c3 88 e4 3c cf 4b f8 3e 88 37 0b be
       0.052545715 0.027897244 0.48495337 -0.13595402
000170 f4 48 ea be 79 dc c0 3d 4e 20 0f 3e 0f 60 8a 3d
       -0.45758784 0.09417052 0.13977167 0.06756603
000180 98 35 9d 3e bc 88 e6 3d e2 9e ad be 6d 93 21 3d
       0.3070495 0.11256549 -0.3391028 0.039447237
000190 b2 8c 63 bd a2 2a 7b bc fe a1 cf 3e d9 44 e9 3d
       -0.0555541 -0.015329989 0.40553278 0.11390085
0001a0 dc be bf be a1 f4 65 bd b1 f3 99 3d cc fd 53 3d
       -0.37450302 -0.0561415 0.075171836 0.05175571
0001b0 b8 a5 28 be 63 96 40 3f 85 63 a1 be a9 a3 66 3d
       -0.16469467 0.7522947 -0.3152124 0.056308422
0001c0 94 d8 cf bd eb e4 05 bc a8 2b 08 be 08 cd 19 3f
       -0.10148731 -0.008172254 -0.13297904 0.6007848
0001d0 dd d6 da be f8 1d e0 3d da 74 37 bd 34 a8 1b 3e
       -0.42742053 0.10943216 -0.044789173 0.15200883
0001e0 32 98 71 3d 98 4a f1 3e c4 45 57 be 27 3c 46 3e
       0.058983035 0.47127223 -0.21022707 0.19358884
0001f0 ef 50 ff 3d 49 7d c8 bd 42 1e 92 3e e4 22 37 3f
       0.12466609 -0.09789521 0.2853871 0.71537614
000200 25 9e 2f be 8d fe 1a 3e 20 fe 01 be dc bd b5 ba
       -0.17150171 0.15136166 -0.12694597 -0.0013865787
000210 aa ec 8a 3e 8a c4 33 3f c5 de bf bd fb f3 a3 3d
       0.27133685 0.7022177 -0.09368662 0.0800552
000220 0a 19 22 3d c7 52 d2 bd 82 ea ea 3e 75 d8 24 3f
       0.03957466 -0.10269695 0.4588204 0.6439279
000230 6a 82 a9 be e3 2f d4 3a 35 0d af 3c 13 3e 7e bc
       -0.3310731 0.0016188588 0.021368602 -0.015517729
000240 b7 fd d0 3d e2 70 78 bd 8a ea 42 3e 19 3a 35 3d
       0.10204642 -0.06065453 0.19034782 0.04424486
000250 bf 67 64 bd 9a 27 84 bd 45 15 c5 3d 4f 0c 13 bd
       -0.055763002 -0.06452866 0.096231975 -0.03590041
000260 2e 6b b5 bd 14 05 18 3e 26 cf 85 3d 91 10 4c 3b
       -0.088583335 0.14845687 0.06533651 0.0031137804
000270 98 21 4e 3b f3 b2 66 3b 13 12 f1 3d d6 c6 06 3e
       0.003145313 0.0035201877 0.117710255 0.13161787
000280 c6 d3 3e bb 90 2f 1f bd 63 5b 0d 3f ce 77 88 3e
       -0.0029117926 -0.03886372 0.5521757 0.26653904
000290 3b 6b 0e bf e9 45 5e bd 2c 2c 2e 3d d6 0f 4e 3d
       -0.5563237 -0.05426589 0.042522594 0.05030807
0002a0 3b 98 11 3f 92 52 1b 3e b3 af 21 bf c4 b7 42 3d
       0.5687291 0.15168217 -0.6315872 0.047538534
0002b0 04 46 3e 3d 1d 84 fa 3d ba e8 c2 3e 12 5f 53 3c
       0.04645349 0.1223223 0.3806818 0.0129010845
0002c0 08 f5 e3 be 66 9c dd bd 39 61 88 bd 68 f3 bb bd
       -0.44522882 -0.10820846 -0.06659169 -0.091772854
0002d0 cc 8a 0c be 5d 6b 01 be 7c 9d 82 3e 7a cf 65 3e
       -0.13724822 -0.12638612 0.25510776 0.22442427
0002e0 35 90 d7 3c 68 9f 66 3e b1 da 93 3c 65 16 23 3e
       0.02631388 0.22521746 0.018048616 0.15926512
0002f0 d0 c7 4e 3e 41 e9 d0 bd 8f 2d 93 3b 4d 62 02 be
       0.2019341 -0.1020074 0.004491515 -0.12732811
000300 26 d0 cf bd e8 e9 62 3c 48 69 8e 3e a0 15 e2 3d
       -0.10147123 0.013849713 0.27814698 0.11039281
000310 ab ed c3 bc df 9c 06 be a1 5a a6 3e a7 01 92 3f
       -0.02391704 -0.13145779 0.3249102 1.1406754
000320 1e fe 12 3d 50 4c 21 be 7a 12 13 be bc 3d 16 be
       0.035886876 -0.15751767 -0.14362517 -0.14671987
000330 dc 83 8e 3e 36 f9 8c 3f 77 5f 6e 3e 82 60 62 3c
       0.27834976 1.1013553 0.23278604 0.013816955
000340 61 53 a0 bc 62 f2 ff 3d a0 68 a5 3d 96 65 83 3f
       -0.019571008 0.12497403 0.08076596 1.0265377
000350 21 1c 1e 3d ea 4e 8b 3d f3 d4 9d 3d c9 64 1a be
       0.038601045 0.06802161 0.077066325 -0.15077509
000360 87 ae 31 be b0 c0 1e be fb 34 a0 3d 22 6c 95 ba
       -0.17351733 -0.15503192 0.07822605 -0.0011400024
000370 e3 b6 05 3e 7b d8 f6 bc 69 6c c8 be 29 bd ff 3d
       0.13058047 -0.030132523 -0.3914521 0.12487251
000380 41 48 6f 3c 80 57 d4 3c ae 04 26 be 29 38 07 bc
       0.014604629 0.02592063 -0.16212723 -0.008253136
000390 9d 19 97 be 8b 9d 8e 3d 81 eb 17 3e 35 07 40 3c
       -0.2951173 0.06963643 0.14835931 0.011720468
0003a0 b3 a8 53 3c 1d d4 61 be 42 61 85 be 05 b4 40 bd
       0.012918639 -0.22053571 -0.26050764 -0.04704668
0003b0 7f d0 d7 be 6e fe 7a be b2 95 1c bd 8d 3a 13 be
       -0.42151257 -0.2451112 -0.038228698 -0.14377804
0003c0 40 db 6f bb a7 89 17 be da 3a 8e be f1 ee 2b 3e
       -0.003659919 -0.14798604 -0.27779275 0.16790368
0003d0 05 c6 a1 bd 89 b3 1c bd 00 91 8a bc 1e 4b 27 be
       -0.07899097 -0.038257156 -0.016914845 -0.16337249
0003e0 36 4b d6 be bd 90 75 3d 41 f3 19 bd cb bc 8a 3d
       -0.41854256 0.059952486 -0.0375855 0.06774291
0003f0 c8 75 d5 3e be dd bf bd 3f 52 88 bd 8d b3 5e 3d
       0.41691422 -0.09368466 -0.06656312 0.05437045

sequential_1/conv1d_3/Conv1D f4 [64, 1, 3, 64]
000000 60 61 f0 bc cb 9b 80 3c 06 df be be 77 6d 1a be
       -0.029343307 0.015699288 -0.37279528 -0.1508082
000010 b6 1e da bd b4 d5 24 bf ef 07 3c be 0d 8e b6 3b
       -0.10650389 -0.64388585 -0.18362401 0.005571133
000020 64 78 4a be 72 cc 14 be 3e 97 0b be 53 9b 36 be
       -0.19772488 -0.14531115 -0.13631913 -0.17832689
000030 81 ae 64 3d 2a bf b0 bd 89 b9 01 3d 7a 41 4a 3d
       0.055830482 -0.08630212 0.03167108 0.04937885
000040 af 72 2b bd d0 88 cf 3d 95 ea 38 3d 2d 29 bb bd
       -0.041857418 0.10133517 0.04514559 -0.09138713
000050 56 1b c1 3d a9 51 9f be 0c 4a 44 be b3 85 03 bf
       0.09429042 -0.3111699 -0.19168872 -0.51375884
000060 f8 38 52 bf bf f0 8f bd 85 3d ec 3d a6 07 f4 3b
       -0.8211818 -0.070283405 0.115351714 0.007447201
000070 f4 c7 12 be ff 8f 8a be ab f0 6b bc 18 21 23 3e
       -0.14334089 -0.27062985 -0.014400641 0.15930593
000080 37 b6 c7 bc d7 52 34 3e 4f d6 3a 3e 3b 06 08 be
       -0.024378879 0.17609726 0.18245815 -0.13283627
000090 49 af cb 3d cf 8a ba bd f7 98 d6 3d 17 ae 55 be
       0.09945542 -0.09108507 0.104783945 -0.20867191
0000a0 61 8d c8 bd 80 05 5e 3d ae 25 64 3e 59 ed 66 be
       -0.09792591 0.054204464 0.22279999 -0.22551478
0000b0 ec 30 f0 3d 92 4a 93 bd b2 9b a4 3d e4 f0 62 3d
       0.11728081 -0.071919575 0.08037509 0.055405512
0000c0 eb ff 58 be dd d2 2d be 63 1e aa bc 74 07 47 be
       -0.21191375 -0.16974969 -0.020766443 -0.19436437
0000d0 66 09 e0 3c f8 2c 71 bd 01 a2 6b bd 21 d0 5c 3d
       0.027348232 -0.058880776 -0.057527546 0.053909425
0000e0 0d b7 54 3c 51 c2 c1 3d a7 0f 2c 3e 42 96 1c 3e
       0.012983096 0.09460891 0.16802846 0.15291694
0000f0 84 53 03 3e 47 66 89 be c2 58 a7 bd d2 7a 59 be
       0.12824827 -0.26835844 -0.08171226 -0.21238258
000100 0e 18 6a bd c1 84 a9 3d b4 90 8a be 98 b4 cc 3c
       -0.057151847 0.08277274 -0.27063525 0.024988458
000110 ca d3 86 3d 62 35 1b bf 4d a5 10 bb 58 d5 78 3c
       0.06583364 -0.6062833 -0.0022071183 0.015187584
000120 65 cd 3f 3c 64 41 32 be 30 cd 17 bd eb e7 1e be
       0.011706685 -0.17407757 -0.037060916 -0.15518157
000130 b5 4a bc bd d0 cd f3 bd 88 12 7c 3d b7 8f 59 bd
       -0.09193937 -0.1190449 0.06154111 -0.053115573
000140 6b 73 19 3d 2e dd 00 3d b9 74 cf 3c 30 a0 a7 bd
       0.037463587 0.031460933 0.025324212 -0.0818485
000150 e8 d5 87 3c 6a cb d9 be 1a f3 65 3c 3e 46 21 bf
       0.01658149 -0.42538005 0.014035011 -0.62997806
000160 96 33 23 bf a8 dc 0e be d2 91 f3 3d 00 59 65 3e
       -0.6375059 -0.13951361 0.118930474 0.22397232
000170 2d af 6e 3d 62 f0 b1 be aa 4c 46 bd 4c f5 30 3d
       0.05827253 -0.3475371 -0.048412956 0.043202683
000180 5f 57 ac bc 28 20 d4 3d 55 24 18 3e 51 9c cb bd
       -0.021037756 0.10357696 0.1485761 -0.09941924
000190 4b 1e 17 bd 9a 0d 0a be 70 17 85 3a 29 b4 03 be
       -0.036894124 -0.13481751 0.001015408 -0.12861694
0001a0 78 05 40 bd ba 2e c6 bd 69 99 6d 3d b7 ab 99 be
       -0.046880215 -0.09676881 0.05800763 -0.3001382
0001b0 e0 67 fb 3d b7 ce 97 be 44 29 0b be b8 89 c2 bc
       0.12275672 -0.29649898 -0.1358996 -0.02374731
0001c0 a9 39 a7 bc 3b 46 c6 be 7d 38 19 be 85 27 f4 bd
       -0.020413237 -0.38725457 -0.14962955 -0.119216
0001d0 f3 f2 04 3d 33 74 95 3c 78 22 89 3d 58 ed 76 3d
       0.032458257 0.018243885 0.066960275 0.060284942
0001e0 33 0a 2b bb 06 ce 27 3d ff ad e1 3b 64 5e 32 3e
       -0.0026098609 0.040967964 0.006887197 0.1741882
0001f0 79 e4 40 3d dd 3b 8a be e8 e7 8a bd d0 df 9a be
       0.04709289 -0.26998797 -0.06782514 -0.3024888
000200 c0 c3 91 bd ef 04 c9 3d 5f 28 bf be b4 5c 8f bd
       -0.071174145 0.09815394 -0.37335488 -0.070001036
000210 8b 10 16 bd 64 3f 22 bf 31 62 98 bc 73 ed 98 bd
       -0.03663687 -0.63377976 -0.018601509 -0.07467165
000220 39 34 ac bb 17 d9 04 be 35 81 a9 bd bd 7c c1 3c
       -0.005255249 -0.12973438 -0.082765974 0.02361905
000230 ca df 1b 3d bd 67 63 3d ad 31 47 3e 70 6b 91 bd
       0.03805522 0.055518854 0.19452544 -0.0710057
000240 ff 22 73 bb 46 f4 95 3d cc c9 f1 3d da d0 79 bd
       -0.0037099717 0.07321982 0.11806068 -0.060990192
000250 6c 0e 0d 3e 19 2e a0 be 0e 9a 3f be cc f0 19 bf
       0.13775033 -0.3128517 -0.18711111 -0.6013305
000260 68 cc 3c bf 45 9c 1f bd 7e f5 98 3c 75 c4 cd 3d
       -0.737494 -0.03896739 0.018671747 0.10047237
000270 18 54 09 be 6e fc 03 bf 1f 85 a8 bc 69 b9 37 3e
       -0.13410985 -0.5155705 -0.02057129 0.17941822
000280 db c2 1c be bf ad 89 3d 3f 8d 25 3d 47 ad 81 3d
       -0.15308706 0.067225926 0.040417906 0.06331878
000290 e6 60 be bc df fc 09 bd 4b 81 d9 bd ac 5d 86 be
       -0.023239564 -0.033688422 -0.10620364 -0.2624334
0002a0 35 03 10 be 04 47 28 bc cc 2a 85 3d 66 8c 68 be
       -0.14063723 -0.010270838 0.065023035 -0.22709808
0002b0 b4 30 29 3e 5b e1 cc bd 83 69 ee bb b2 32 90 3d
       0.16522485 -0.10003921 -0.0072757616 0.07040919
0002c0 08 d9 21 bd d3 af 8a be 75 82 ae b9 cc 42 36 3b
       -0.039513618 -0.27087268 -0.00033285064 0.002781081
0002d0 de 8a ac bc c2 48 6c 3c d7 7d c3 3c 53 2f ed 3a
       -0.02106231 0.014421644 0.023863716 0.0018095769
0002e0 ba 67 0d 3e 5c 68 a9 3d 5f 0d 53 3e dd 9e 68 bd
       0.138091 0.08271858 0.2061057 -0.05679213
0002f0 48 68 53 bd 84 8d 80 be bc 0f f3 3c 24 5c de be
       -0.051613122 -0.25107968 0.029670589 -0.43429673
000300 55 0f 46 bc f4 fe c6 3c a9 5b 29 be d6 5f 84 bd
       -0.012088616 0.024291493 -0.16538872 -0.06463592
000310 99 4e 1d be 81 e6 2a bd da 77 1d 3e 88 c4 c1 bd
       -0.15362014 -0.041723732 0.15377751 -0.094613135
000320 10 3d d1 ba 29 84 52 3d 99 60 ef bc 7a d6 c3 bd
       -0.0015963633 0.05139557 -0.029220866 -0.095623925
000330 c2 fb e7 bd fa 0b d3 3c 80 44 88 be ca e9 09 be
       -0.11327316 0.025762547 -0.2661476 -0.1346809
000340 1d c5 4e bd 5e 65 b6 3d 33 27 9c be b4 f5 1f bc
       -0.05048095 0.08906053 -0.30498657 -0.00976317
000350 d7 b6 82 3c 17 34 93 bd 74 29 4a be 3e 80 66 be
       0.015956325 -0.0718767 -0.19742376 -0.22509858
000360 d2 1f 8d 3d e9 fb a6 bd 90 8a f8 3d bf a0 b3 bd
       0.06890835 -0.08153517 0.12135804 -0.08770894
000370 1e f5 28 3d 56 81 b4 bc 2f 43 07 be aa e4 bf bd
       0.041249387 -0.022034328 -0.13209222 -0.09369786
000380 98 b6 ce bd 86 50 da bd 29 c1 54 be d4 0d 91 bd
       -0.10093421 -0.1065989 -0.2077681 -0.07082716
000390 59 ef 9b be 86 3a ce bd f5 b2 2a be b7 63 1e 3d
       -0.30456045 -0.10069756 -0.16669829 0.038669314
0003a0 3a ca 0a bd 51 d3 8b bd 60 8c de 3d fc 3f c8 3d
       -0.033884265 -0.06827415 0.10866618 0.09777829
0003b0 cb e6 0f 3c d4 0b a6 bd 25 36 e0 bd 34 f2 26 be
       0.008783053 -0.08107725 -0.10947827 -0.1630333
0003c0 70 9b 84 3d 29 09 50 bd ec e2 7b be c0 f6 28 be
       0.0647496 -0.050789986 -0.24598283 -0.16500378
0003d0 ae 10 6c bd d8 b5 5b bd 59 92 e7 bd de c7 12 3d
       -0.057633094 -0.053640217 -0.113072105 0.03583514
0003e0 6a 83 d0 bd d7 af 78 3b ac 79 17 be ae a5 9f 3d
       -0.10181315 0.0037946606 -0.14792508 0.07795273
0003f0 f1 59 9d 3d 6f 5e 19 3d 30 66 09 3d 54 27 4a be
       0.076831706 0.037443575 0.03354472 -0.19741565
