data_processing/noMovement_thingy_model.tflite (tflite, 655808 bytes, 8 tensors)

sequential_2/dense_5/BiasAdd/ReadVariableOp f4 [13]
0	0xbf0b523c	-0.54422355
1	0x3fc6d308	1.5533152
2	0x3e540824	0.2070623
3	0xbd629a6c	-0.05532305
4	0x3db38049	0.08764703
5	0xbda9081a	-0.082534984
6	0xbdc6323a	-0.09677549
7	0xbfccdd2d	-1.6004997
8	0x3e40b6ac	0.18819684
9	0x3cba5ea8	0.022750214
10	0x3da5726f	0.08078467
11	0x3de7b70c	0.1131421
12	0xbed20869	-0.4102204

sequential_2/dense_4/BiasAdd/ReadVariableOp f4 [100]
0	0xbd9ebaec	-0.07750496
1	0x3e9ed885	0.31024566
2	0x3e921e7d	0.28538886
3	0x3e3130a3	0.1730371
4	0x3e4c947b	0.19978516
5	0x3eb0e924	0.34552872
6	0x3dbf4de0	0.09341025
7	0x3d066d73	0.032819223
8	0xbdd26622	-0.102733865
9	0x3d5de462	0.05417288
10	0xbc6af07b	-0.014339562
11	0xbc95c114	-0.018280543
12	0x3dfb6ab2	0.1227621
13	0xbe3d8da2	-0.1851106
14	0xbec99606	-0.3937227
15	0xbdea7b73	-0.11449327
16	0x3d797d5b	0.060910564
17	0x3e856b0c	0.26058233
18	0xbe32f5f4	-0.17476636
19	0x3e857c11	0.26071218
20	0xbe0be16a	-0.13660207
21	0xbe5d22aa	-0.21595255
22	0xbdd4bd5a	-0.103876784
23	0xbcc01e24	-0.023451872
24	0x3e3fbba1	0.18723918
25	0x3cd463fd	0.025926584
26	0x3e02bf63	0.1276832
27	0x3e2a4918	0.16629446
28	0xbcc3c532	-0.023897741
29	0xbdbe3c6e	-0.0928887
30	0xbc8db6c9	-0.017299073
31	0xbe2c01fe	-0.16797635
32	0xbd2ca140	-0.042145967
33	0x3b457040	0.003012672
34	0x3e0a827a	0.13526335
35	0x3e1c902d	0.15289374
36	0xbdbb361c	-0.0914118
37	0xbe84a74b	-0.25908884
38	0xbdc9f12d	-0.09860454
39	0x3ea20373	0.31643257
40	0xbdad57da	-0.08464022
41	0xbd23905f	-0.039932605
42	0x3dcc778a	0.09983738
43	0x3e4e0f4a	0.2012302
44	0x3e0632db	0.13105337
45	0xbe12cc60	-0.14335775
46	0x3e1eb9be	0.15500543
47	0xbe7347e2	-0.2375789
48	0x3dc673bf	0.096900456
49	0x3d2b0518	0.041752905
50	0x3e3aeed8	0.18255174
51	0xbec54d05	-0.38535324
52	0xbdb5aabd	-0.08870456
53	0x3e5a07d2	0.21292046
54	0x3e63894e	0.22220346
55	0x3da3ba35	0.079945005
56	0xbd918aab	-0.07106527
57	0x3de46f5f	0.11154055
58	0xbe45959b	-0.19295351
59	0x3e3c644a	0.18397632
60	0x3df13d23	0.11779239
61	0x3d85b0c0	0.06527853
62	0x3a94564f	0.0011317226
63	0xbe202bae	-0.15641662
64	0x3b989ca7	0.0046573463
65	0xbc781823	-0.015142473
66	0x3e5e2d23	0.21696906
67	0xbddbc6eb	-0.107313
68	0x3e07c7d9	0.1325983
69	0x3d43a8b7	0.04776832
70	0xbe24ca86	-0.16092882
71	0x3c1ed321	0.009693892
72	0xbd1f946a	-0.038959898
73	0x3ae60017	0.0017547634
74	0x3d8abf69	0.0677479
75	0x3e44cfe9	0.19219936
76	0xbd89cc2c	-0.06728396
77	0x3e62581f	0.22103928
78	0xbe076da6	-0.13225421
79	0xbe88d95c	-0.26728332
80	0x3cc7a11b	0.024368813
81	0xbb9e9efd	-0.00484073
82	0xbd42ee68	-0.047590643
83	0xbddc098e	-0.1074401
84	0xbdb98ae0	-0.090596914
85	0x3e571dc4	0.21007448
86	0xbe09cd1d	-0.13457151
87	0xbdb91e20	-0.09038949
88	0x3d2ed898	0.04268703
89	0x3dd37894	0.10325733
90	0xbd3e2e98	-0.046431154
91	0xbe535c2b	-0.20640628
92	0x3c9585d6	0.018252295
93	0x3dcfdc52	0.10149445
94	0x3e747798	0.23873746
95	0x3d3a002c	0.04541032
96	0x3e0ae06c	0.13562173
97	0x3eee52a0	0.46547413
98	0xbda800df	-0.08203291
99	0x3d841070	0.06448448

sequential_2/conv1d_5/BiasAdd/ReadVariableOp f4 [64]
0	0xbe5c4845	-0.21511944
1	0xbd23f8e1	-0.04003227
2	0xbcf5372b	-0.029933533
3	0x3eab83f3	0.33499107
4	0x3d6759ab	0.056482
5	0xbe9d3723	-0.30706128
6	0x3d20ae1a	0.039228536
7	0xbc3774b5	-0.011197259
8	0x3d13c224	0.03607382
9	0x3dd5b97d	0.1043577
10	0x3e0afb66	0.13572463
11	0xbe1d3bc6	-0.15354833
12	0x3d11733f	0.035510298
13	0xbe9173c1	-0.28408626
14	0x3d09d656	0.033651672
15	0xbe1f185b	-0.15536635
16	0xbd34d7d2	-0.044151135
17	0xbd0c3613	-0.034231257
18	0xbe04c6df	-0.12966488
19	0x3e1dc4ac	0.15407056
20	0x3e863bff	0.26217648
21	0xbe88ccab	-0.2671865
22	0x3c827d5f	0.015928922
23	0x3bbb3475	0.0057130405
24	0xbda45a70	-0.08025062
25	0x3c26bef4	0.010177363
26	0xbdb6e84e	-0.08931027
27	0xbcd2e24b	-0.02574267
28	0x3db28169	0.08716089
29	0x3d600262	0.054689772
30	0x3d95bbeb	0.07311233
31	0x3e6a0103	0.22851948
32	0x3b181386	0.0023204996
33	0xbe8ea396	-0.2785918
34	0x3e8e3869	0.27777413
35	0x3eafb725	0.34319416
36	0x3e273659	0.16329326
37	0x3ea40c67	0.32040712
38	0x3e6241bb	0.22095387
39	0xbf1ee9ef	-0.62075704
40	0x3e91eaeb	0.2849954
41	0xbe9685cd	-0.29398957
42	0xbdd3ce3c	-0.103420705
43	0xbdd62800	-0.10456848
44	0xbcc311bc	-0.023812167
45	0x3e372752	0.17886093
46	0x3cbaea9a	0.022816945
47	0xbbb886f0	-0.00563132
48	0xbdf834ac	-0.12119421
49	0xbd8373bf	-0.06418561
50	0xbe973ade	-0.295371
51	0xbc399a45	-0.011328285
52	0xbaf5d13d	-0.0018754374
53	0xbcecd942	-0.02891219
54	0xbd51f3dc	-0.051257953
55	0xbbf53d78	-0.0074841343
56	0x3e4e5a05	0.20151527
57	0xbd8c4434	-0.06848946
58	0x3d825ddb	0.06365558
59	0xbd94c198	-0.072634876
60	0x3cb21c4b	0.021742007
61	0xbdd1e9c7	-0.102496676
62	0x3d13a969	0.036050234
63	0xbe9fe0af	-0.31226107

sequential_2/conv1d_4/BiasAdd/ReadVariableOp f4 [64]
0	0xbdc3b99a	-0.09556885
1	0x3dad3f8e	0.08459388
2	0x3e7e22ee	0.24818012
3	0x3cf36abc	0.02971398
4	0xbdf70015	-0.120605625
5	0xbe806ac0	-0.25081444
6	0xbc5e90be	-0.013584314
7	0xbeaa9592	-0.33317238
8	0x3e6f92b1	0.23395802
9	0xbe17b5d1	-0.14815451
10	0xbe56a90d	-0.20962925
11	0xbe4f476e	-0.20242092
12	0xbdafcd75	-0.0858411
13	0x3ea27833	0.3173233
14	0x3d8c6588	0.06855303
15	0x3c6d7270	0.014492616
16	0x3e1c4f81	0.15264703
17	0x3c1dafd5	0.009624441
18	0xbd4df5a6	-0.050283097
19	0x3d81df4e	0.0634142
20	0xbdbf4648	-0.09339577
21	0xbdc398db	-0.09550639
22	0xbee324ef	-0.44364116
23	0xbe48e806	-0.1961976
24	0x3ce15cf3	0.027510142
25	0x3eb0bdc8	0.34519792
26	0x3db327c4	0.08747819
27	0x3e2ddf38	0.16979682
28	0xbdc440f7	-0.095827036
29	0xbcb4b1d1	-0.022057446
30	0xbc9ab60f	-0.01888564
31	0x3e586518	0.21132314
32	0xbe8d863b	-0.27641472
33	0xbcf843f5	-0.030305842
34	0xbe6c6208	-0.23084271
35	0xbea2dcb6	-0.31809014
36	0xbe1592ea	-0.14606825
37	0xbdb34327	-0.08753043
38	0xbded683a	-0.11592145
39	0xbddf6bd6	-0.1090924
40	0xbb6dfec9	-0.0036315194
41	0x3bcf8789	0.0063332957
42	0xbdb2555c	-0.08707687
43	0xbde6b1f0	-0.11264408
44	0x3e91006a	0.28320628
45	0xbe9b818b	-0.3037227
46	0xbea9cf9c	-0.33166206
47	0x3e5754f1	0.21028496
48	0xbe661e03	-0.22472386
49	0xbdc8800a	-0.097900465
50	0x3e00b481	0.12568857
51	0x3d4bbaf8	0.049738854
52	0xbc0ddedb	-0.00865909
53	0x3e648d2c	0.22319478
54	0x3ce07c5b	0.027403047
55	0xbe8bab06	-0.27278918
56	0xbe00c26d	-0.12574168
57	0x3daa55d8	0.08317155
58	0x3e7e9460	0.24861288
59	0xbf0ee90f	-0.5582437
60	0xbd877c82	-0.06615545
61	0xbe01d64a	-0.12679401
62	0xbe583018	-0.21112096
63	0xbe0c9efe	-0.13732526

sequential_2/dense_4/MatMul f4 [100, 1472]
0	0x3c0a06ba	0.008424455
1	0x3e0e79d7	0.13913666
2	0x3cc0ac1a	0.023519564
3	0x3c08e759	0.008355939
4	0x3dcca3e9	0.09992201
5	0xbd81a947	-0.06331115
6	0xbdeb5f58	-0.11492795
7	0xbaba89d4	-0.001423175
8	0x3d231f13	0.039824557
9	0x3d644631	0.055731002
10	0x3dfde27b	0.12396713
11	0xbdaeec71	-0.08541191
12	0x3d0fe956	0.035134636
13	0xbd704b28	-0.058665425
14	0x3e375b03	0.17905812
15	0x3bec0f13	0.0072039454
16	0xbb560f84	-0.0032663057
17	0xb9e9b23a	-0.00044574012
18	0x3ca39f3d	0.019973392
19	0xbcc89d21	-0.024488987
20	0xbe3304f4	-0.17482358
21	0x3bebed8e	0.0071999496
22	0xbba2ff41	-0.0049742763
23	0xbde977cc	-0.113998026
24	0x3bcc9382	0.0062431702
25	0xbd5b7d67	-0.05358639
26	0x3d09d2ed	0.03364842
27	0x3e4aa6b2	0.19790152
28	0xbdfdee45	-0.12398962
29	0xbd0746ae	-0.03302639
30	0xbea46741	-0.32110026
31	0x3d9e6ecf	0.07735979
32	0xbdf4d929	-0.119554825
33	0x3dc51ea2	0.09624983
34	0x3dc8690a	0.097856596
35	0x3d82097c	0.06349465
36	0x3e1827f5	0.14858992
37	0xbe156106	-0.14587793
38	0x3d9495d3	0.07255139
39	0xbe116456	-0.14198431
40	0x3d17c884	0.03705646
41	0xbcf0231f	-0.029313622
42	0x3db6eb42	0.089315906
43	0x3d0abefd	0.033873547
44	0xbd026dfb	-0.031843167
45	0x3c798746	0.015230006
46	0x3db8dc5c	0.09026405
47	0x3dc160bd	0.094422795
48	0x3d799562	0.06093348
49	0xbc1b77dc	-0.009489026
50	0xbc08cd18	-0.008349679
51	0xbcc706f8	-0.024295315
52	0x3cea38b7	0.028591497
53	0xbcea60b4	-0.028610565
54	0xbd8b09f1	-0.067890055
55	0xbe3a9227	-0.18219815
56	0x3e28116d	0.16412897
57	0x3c528d94	0.012851138
58	0x3d8215b7	0.06351798
59	0x3e049011	0.12945582
60	0x3d5872fb	0.05284403
61	0x3e15da5b	0.14634077
62	0x3db8015a	0.08984633
63	0xbbc8441b	-0.0061116344
64	0x3cdf27c5	0.027240643
65	0xbccfdaad	-0.025372827
66	0x3d8a8945	0.06764463
67	0x3c557798	0.013029002
68	0xbda7b858	-0.08189458
69	0xbe0774a5	-0.1322809
70	0x3cf84c4c	0.030309819
71	0xbb06b001	-0.0020551684
72	0xbe421d84	-0.18956572
73	0x3bdda52a	0.006764074
74	0xbc606d38	-0.013697915
75	0x3d2a752e	0.041615658
76	0x3a97aa8e	0.0011571215
77	0x3d14b4bf	0.036305185
78	0x3ddbd85a	0.10734625
79	0x3d219dc0	0.039457083
80	0xbc95b195	-0.018273154
81	0x3d46b0d7	0.04850849
82	0xbe0255c6	-0.12728032
83	0xbd628cb0	-0.05530995
84	0x3c5fe62e	0.013665719
85	0x3d6e707c	0.058212742
86	0x3d477ade	0.04870116
87	0xbce4b4df	-0.027918277
88	0x3cda84f0	0.026674718
89	0x3d1bab81	0.038005356
90	0x3d674a9a	0.05646763
91	0x3e1307f0	0.14358497
92	0xbdc58455	-0.09644381
93	0x3e04d761	0.12972786
94	0xbd27f8d0	-0.04100877
95	0x3d3130ce	0.043259434
96	0x3d685cef	0.056729253
97	0xbd064e4a	-0.032789506
98	0x3d8156ea	0.06315406
99	0x3d494773	0.049140405
100	0x3cee9b6a	0.029126842
101	0xbeb3e9a7	-0.351392
102	0xbd898fa4	-0.067168504
103	0xbc5b19eb	-0.013372879
104	0x3de8166f	0.11332404
105	0xbd896a62	-0.06709744
106	0x3d7be0c9	0.06149367
107	0xbdb19b8a	-0.08672245
108	0x3cf0706b	0.02935048
109	0xbc8614b1	-0.016367288
110	0x3def3667	0.11680298
111	0x3dc92b49	0.09822709
112	0x3c4742d1	0.012161926
113	0xbb3d51b7	-0.0028887817
114	0xbbfce0e3	-0.0077172383
115	0x3dfb3668	0.122662365
116	0x3d8a7fa8	0.0676263
117	0x3d3f4ab7	0.046702113
118	0xbe1bce30	-0.15215373
119	0xbdb74cd2	-0.08950199
120	0x3e270f7a	0.16314498
121	0x3bf32f82	0.007421435
122	0x3d8faf5e	0.070158705
123	0x3da6474f	0.0811907
124	0x3d82e4dd	0.063913085
125	0x3e64bc7c	0.22337526
126	0xbad39440	-0.0016142204
127	0xbd62eb8d	-0.05540042
128	0xbb95e8b4	-0.0045748595
129	0x3bca9790	0.0061826184
130	0x3c85140c	0.01624491
131	0xbc07ca5b	-0.008287991
132	0xbdaca864	-0.084305555
133	0xbd549f9f	-0.05191004
134	0xbd50382d	-0.050834823
135	0xbd5eff22	-0.054442532
136	0xbd94ad89	-0.07259662
137	0x3d782e1c	0.06059085
138	0x3b9b8d18	0.0047470443
139	0xbbb26c25	-0.0054450207
140	0x3a8395d2	0.0010039157
141	0xbccebe0d	-0.025237108
142	0x3cddc3cc	0.027070902
143	0xbdbad813	-0.09123244
144	0xbce3afd1	-0.027793797
145	0xbd71a3de	-0.058994167
146	0xbd079ff1	-0.033111516
147	0xbbdff212	-0.006834277
148	0x3d9b52a7	0.07584124
149	0xbd4dde32	-0.05026073
150	0xbd0473cc	-0.032336995
151	0xbdc78712	-0.097425595
152	0x3dd92097	0.10601919
153	0x3d64ab07	0.055827167
154	0xbdb29a7a	-0.0872087
155	0x3e152559	0.14565028
156	0xbdb78ea8	-0.089627564
157	0x3ce31ccc	0.027723692
158	0xbd3db014	-0.0463105
159	0x3e2272b7	0.15864073
160	0xbdebe6c1	-0.11518622
161	0x3d73c432	0.05951328
162	0x3beaf91c	0.0071708094
163	0xba0f976e	-0.0005477582
164	0x3e0c7cc9	0.13719477
165	0xbe874608	-0.26420617
166	0xbda1f44a	-0.079079226
167	0xbd9e947a	-0.077431634
168	0x3d3b881f	0.045784112
169	0x3d626035	0.05526753
170	0x3de42092	0.11139025
171	0x3ce7505b	0.028236559
172	0xbd755ec9	-0.059904847
173	0xbd16b333	-0.03679199
174	0x3daabbf3	0.0833663
175	0x3ab442ca	0.0013752815
176	0x3df0dbd7	0.11760681
177	0xbd98b121	-0.0745566
178	0x3c41dc1c	0.011832263
179	0x3dfa1183	0.12210371
180	0xbe1cd256	-0.15314612
181	0x3dd11760	0.102095366
182	0xbd0ee0d8	-0.034882396
183	0xbd95c740	-0.073133945
184	0x3e2eb0ee	0.17059681
185	0xba7232d0	-0.0009239139
186	0x3c5a9784	0.013341788
187	0x3d9fd350	0.078039765
188	0x3dc89b79	0.09795279
189	0x3dfa63fe	0.12226103
190	0xbdd7d6ee	-0.105390415
191	0x3dff591d	0.12468169
192	0x3df10d25	0.11770085
193	0x3cacd3c4	0.021097071
194	0x3d13ac14	0.03605278
195	0x3e1719a3	0.14755873
196	0x3cbc513c	0.022987954
197	0xbdc2ac01	-0.095054634
198	0xbd9bde77	-0.07610791
199	0xbcbbba94	-0.022916116
200	0x3cf7e00c	0.030258201
201	0x3d1f71d8	0.03892693
202	0xbcca8143	-0.02471984
203	0xbcb2f83f	-0.021846889
204	0xbd71ce71	-0.05903477
205	0x3d3e6b32	0.04648895
206	0x3dab6637	0.08369105
207	0x3d9e4d54	0.07729593
208	0xbe03e974	-0.12882024
209	0xbd4f32d6	-0.05058559
210	0x3c3f7bef	0.011687263
211	0xbe326e4b	-0.17424886
212	0xbdbecd16	-0.09316461
213	0x3d36703e	0.044540636
214	0x3cdb431c	0.026765399
215	0x3ca4a720	0.020099223
216	0xbd29e732	-0.04148025
217	0x3dfffad2	0.12499012
218	0xbba64e78	-0.005075272
219	0x3e874baf	0.2642493
220	0xbd31fd14	-0.043454245
221	0xbd46869c	-0.048468217
222	0xbd48a28f	-0.048983153
223	0x3d9ca476	0.07648556
224	0xbd0bd20c	-0.034135863
225	0xbda0f323	-0.07858875
226	0xbd8ac5f1	-0.067760356
227	0xbd409107	-0.04701331
228	0x3d6ba034	0.05752583
229	0xbe7bdbf6	-0.24595627
230	0xbdb15ace	-0.08659898
231	0xbdd9c2dd	-0.1063287
232	0xbc79f8d4	-0.015257079
233	0xbc371a02	-0.011175634
234	0x3e012273	0.12610798
235	0xbd472011	-0.048614565
236	0x3d06497f	0.032784935
237	0x3d435845	0.047691602
238	0x3dd8c385	0.105841674
239	0xbd8d6d2b	-0.06905588
240	0x3e3b47f5	0.18289168
241	0xbdef5871	-0.11686791
242	0xbcba1a09	-0.022717493
243	0x3c977a45	0.01849092
244	0xbd0bcc95	-0.03413065
245	0x3e2d8e51	0.1694882
246	0xbd3da2d6	-0.04629787
247	0xbd940e05	-0.072292365
248	0x3e4c778e	0.19967481
249	0xbd766351	-0.06015331
250	0x3d4d5688	0.05013135
251	0xbbbb23d2	-0.005711057
252	0x3ca92d1d	0.020651395
253	0x3dbdcdda	0.09267779
254	0xbbfb0ee8	-0.007661689
255	0x3d9995f0	0.074993014

sequential_2/dense_5/MatMul f4 [13, 100]
0	0xbdce1e4e	-0.10064374
1	0xbdccb148	-0.09994751
2	0xbd7ca68c	-0.06168227
3	0x3d26b4cf	0.040699776
4	0x3e2cacb8	0.16862762
5	0x3b2aa57a	0.0026038573
6	0x3dabf8e0	0.083970785
7	0xbcce73be	-0.025201675
8	0x3d04904a	0.032364167
9	0xbd833c4b	-0.06407984
10	0x3d84c9bc	0.0648379
11	0x3d4decef	0.050274786
12	0xbe67d927	-0.22641431
13	0x3e01bae6	0.12668952
14	0x3df0b25c	0.11752769
15	0x3d9da1de	0.07696889
16	0x3bb74199	0.0055925366
17	0xbe7e5dd6	-0.24840483
18	0xbdbd4eae	-0.092435226
19	0xbe018432	-0.12648085
20	0x3d9abbbc	0.07555339
21	0xbdf50337	-0.11963504
22	0x3bada151	0.0052987714
23	0xbe073f49	-0.13207735
24	0xbde63048	-0.11239678
25	0x3d99ccb5	0.07509748
26	0xbc9360e0	-0.01799053
27	0x3d0fbcc4	0.03509213
28	0xbd8139f3	-0.06309881
29	0x3e149c11	0.1451266
30	0xbb01f993	-0.0019832596
31	0x3e2dda80	0.16977882
32	0xbd8f1504	-0.0698643
33	0xbd9ea61e	-0.07746528
34	0x3dc0ff78	0.09423727
35	0xbd19b07f	-0.037521835
36	0x3e311743	0.1729403
37	0xbcf94d7e	-0.030432459
38	0x3dc4c26a	0.09607394
39	0xbd2b365d	-0.04179989
40	0x3e182064	0.14856106
41	0xbdaf505f	-0.085602514
42	0xbbfc1f12	-0.0076941336
43	0x3da17a1a	0.07884617
44	0x3d53089a	0.051521875
45	0x3dd70a4c	0.10500011
46	0x3e5b72a3	0.21430449
47	0xbcc28195	-0.02374343
48	0xbdc57007	-0.09640508
49	0x3d8389e2	0.064227834
50	0xbe0ded1d	-0.13859983
51	0x3ccbab2a	0.02486189
52	0xbdc9e77a	-0.09858604
53	0xbeac6aec	-0.33675325
54	0xbdf2fcf9	-0.11864657
55	0x3de60866	0.112320706
56	0xbd5a1831	-0.053245727
57	0xbc675322	-0.0141189415
58	0x3de90d65	0.11379508
59	0x3d0576e6	0.032584094
60	0x3cec6673	0.028857445
61	0xbd13c7f6	-0.03607937
62	0x3e16e3de	0.14735362
63	0xbbec0136	-0.007202293
64	0x3dd1fa6e	0.10252844
65	0xbcddeda0	-0.027090847
66	0xbe1d7828	-0.15377867
67	0xbd371bfe	-0.04470443
68	0xbbe0199b	-0.00683899
69	0xbdc1f7ac	-0.09471068
70	0x3d93ca00	0.07216263
71	0xbe56f697	-0.20992504
72	0x3de4f525	0.1117957
73	0xbd204446	-0.03912761
74	0xbdfc494a	-0.12318666
75	0xbe9e240a	-0.3088687
76	0x3d3bea05	0.045877475
77	0xbe0a1501	-0.13484575
78	0xbd6ce0ab	-0.057831448
79	0xbca669df	-0.020314155
80	0x3d122885	0.035683174
81	0xbe1ba6c6	-0.15200338
82	0x3dae7372	0.08518113
83	0x3e55abc0	0.20866299
84	0xbd8b5748	-0.06803757
85	0xbed34c25	-0.4126903
86	0x3db43d92	0.08800806
87	0xbdd3250b	-0.103098
88	0x3cd8100b	0.026374837
89	0x3d93b2a0	0.072118044
90	0x3c07b94f	0.008283927
91	0xbcd32b21	-0.025777401
92	0x3e17e98b	0.14835183
93	0x3c3aab0a	0.011393318
94	0x3d2048a7	0.039131787
95	0xbcfd64ba	-0.03093182
96	0xbd5aba8d	-0.053400565
97	0xbe9ebf21	-0.31005195
98	0xbe1d9f32	-0.1539276
99	0x3e09fd08	0.1347543
100	0x3cb73aa2	0.022366825
101	0xbd8a4b7b	-0.06752678
102	0xbe242628	-0.1603018
103	0x3d972f48	0.07382065
104	0x3d784092	0.060608454
105	0x3d1063ee	0.03525155
106	0xbc1ae42e	-0.009453816
107	0x3e018e9e	0.1265206
108	0x3d66f085	0.05638172
109	0xbe980309	-0.29689816
110	0x3dffa4e7	0.124826245
111	0x3defcc24	0.117088586
112	0xbe0ccaa6	-0.13749179
113	0xbd42c309	-0.04754928
114	0x3e2b909d	0.16754384
115	0xbe17677e	-0.14785573
116	0x3d7d2c89	0.06181005
117	0xbe1c0dc7	-0.1523963
118	0xbd9f7de0	-0.077876806
119	0x3d284d83	0.041089546
120	0xbe2710fc	-0.16315073
121	0xbe2338a0	-0.1593957
122	0xbd134d8d	-0.03596263
123	0xbe54a0c1	-0.20764448
124	0xbe20afc0	-0.15692043
125	0x3d845b4a	0.064627245
126	0x3dbe58da	0.09294291
127	0xbd35208d	-0.044220496
128	0xbdb268d6	-0.08711402
129	0xbe10808f	-0.14111541
130	0x3dcad47d	0.0990381
131	0x3de0a4d4	0.109689385
132	0xbcbd4751	-0.023105295
133	0xbe56579d	-0.2093186
134	0x3cac7e2b	0.021056255
135	0xbd2caa06	-0.042154334
136	0x3e1a0ef5	0.15044768
137	0x3d673948	0.056451112
138	0x3e071665	0.13192137
139	0xbe9f71cc	-0.31141508
140	0x3e3e0e18	0.18560064
141	0x3dc5149d	0.09623072
142	0xbdf89ba7	-0.12139063
143	0x3d132282	0.03592158
144	0xbd9e5a7c	-0.07732102
145	0x3e20d2c7	0.15705405
146	0xbe586bad	-0.21134825
147	0x3e082f51	0.132993
148	0x3dd036b6	0.10166685
149	0x3d771c96	0.060329996
150	0x3e332fb8	0.17498672
151	0x3d06ca3c	0.03290771
152	0xbce3b1fe	-0.027794834
153	0xbe162e0b	-0.14666001
154	0x3c901404	0.01758767
155	0x3d716caf	0.05894154
156	0x3e0901e5	0.13379629
157	0x3da0f441	0.07859088
158	0x3d8e6992	0.0695373
159	0xbc9985a6	-0.018740486
160	0x3b095e29	0.0020960665
161	0xbd88c861	-0.06678844
162	0xbd59b2b4	-0.05314894
163	0xbcc8ee9f	-0.024527846
164	0x3ca5cc2d	0.02023896
165	0x3dd19476	0.10233395
166	0xbe230560	-0.15920019
167	0xbe2e1973	-0.17001896
168	0x3e237c27	0.15965329
169	0x3e131424	0.14363152
170	0xbd82e39c	-0.06391069
171	0xba962986	-0.0011456467
172	0x3d0763c8	0.033054143
173	0x3d4f0051	0.05053741
174	0x3e48f1bc	0.19623464
175	0xbec3d723	-0.38250074
176	0x3d2cb34f	0.04216319
177	0xbe397ed2	-0.18114784
178	0x3dcee845	0.10102896
179	0x3d9d3701	0.07676507
180	0x3e122dad	0.14275236
181	0xbde70b78	-0.11281484
182	0x3dc2fa1e	0.09520362
183	0x3e199341	0.14997579
184	0x3e23659f	0.15956734
185	0xbe38c33e	-0.18043229
186	0xbd9426ec	-0.07233986
187	0x3d905985	0.070483245
188	0xbdc94ca8	-0.09829074
189	0x3d80bc0b	0.06285866
190	0x3e2f15cd	0.1709816
191	0xbe14f27d	-0.14545627
192	0xbd86fe90	-0.06591523
193	0x3e08cb15	0.1335872
194	0x3d339945	0.04384734
195	0xbddff1cd	-0.10934792
196	0x3e1f9521	0.15584232
197	0xbe8b0f85	-0.27160278
198	0x3d8cb691	0.06870759
199	0x3e0a0f49	0.13482393
200	0x3cad914f	0.021187453
201	0xbd09c028	-0.03363052
202	0xbd4a4bd9	-0.04938874
203	0x3c4d3cc9	0.012526699
204	0x3e074357	0.13209282
205	0x3c66f88e	0.014097346
206	0xbeadcb7a	-0.33944303
207	0x3de1cde3	0.11025598
208	0x3dcf5373	0.101233386
209	0xbcd835e1	-0.026392879
210	0xbec063fc	-0.37576282
211	0xbe6e6a50	-0.23282743
212	0x3e95986a	0.29217845
213	0x3e4c82ce	0.19971773
214	0x3d54d9b1	0.05196542
215	0xbe54a63c	-0.20766538
216	0x3dcdd7d3	0.10050931
217	0x3dfc1df5	0.12310401
218	0x3d3de861	0.046364192
219	0xbd4343ee	-0.047672205
220	0x3e843c6b	0.25827345
221	0x3de8329b	0.11337777
222	0xbdfc5b3a	-0.123220876
223	0x3eb2dccb	0.34934077
224	0xbeea276e	-0.45733207
225	0xbe500e25	-0.20317896
226	0xbe2531ff	-0.16132353
227	0x3e6c851a	0.23097649
228	0x3eb50335	0.3535401
229	0xbd92e5d1	-0.0717274
230	0x3e07cbb7	0.13261305
231	0x3e7f2c4e	0.24919245
232	0xbd76a342	-0.06021429
233	0xbe45d648	-0.19320023
234	0x3e5a321d	0.21308179
235	0x3d871b36	0.06596987
236	0xbeb2511b	-0.34827504
237	0x3d255b1f	0.040370103
238	0xbd1d908d	-0.038467932
239	0x3e3f08b2	0.18655661
240	0x3dd0a6bf	0.10188054
241	0x3e695d54	0.22789508
242	0xbd90146e	-0.07035147
243	0x3cc88557	0.024477644
244	0x3ba1f379	0.0049423543
245	0x3d4169e9	0.047220144
246	0x3e3d51a6	0.18488178
247	0xbe0071ae	-0.12543365
248	0x3e476c9d	0.19475026
249	0xbe3eac20	-0.18620348
250	0x3e91324e	0.28358692
251	0x3d1510ab	0.03639285
252	0xbd9f8de1	-0.07790733
253	0xbd53cfdb	-0.0517119
254	0xbe9421f1	-0.28932145
255	0xbeb10f7a	-0.3458212

sequential_2/conv1d_4/Conv1D f4 [64, 1, 3, 9]
0	0xbe7dbb88	-0.24778569
1	0xbee20da0	-0.4415102
2	0x3e141322	0.14460424
3	0x3cf918e0	0.03040737
4	0x3d50fda6	0.051023148
5	0xbdc5aaa4	-0.09651688
6	0x3e9a52a6	0.3014118
7	0x3ee20854	0.4414698
8	0xbd895d3a	-0.06707235
9	0xbe6d0027	-0.2314459
10	0xbecdf4dd	-0.40225878
11	0x3dbcd543	0.09220364
12	0x3d9349b3	0.071917914
13	0xbc5ef23d	-0.013607559
14	0xbe08ff29	-0.13378586
15	0xbbaacf6c	-0.005212715
16	0xbe6282bf	-0.22120188
17	0x3d6ea95e	0.05826699
18	0xbdd26acf	-0.10274278
19	0xbec75d13	-0.38938197
20	0xbc845cf8	-0.016157612
21	0xbc215054	-0.009845812
22	0x3d59f611	0.053213183
23	0x3d8ede1b	0.06975957
24	0xbe04653a	-0.1292924
25	0xbe69537e	-0.22785756
26	0x3e3c717e	0.18402669
27	0x3d9e929f	0.077428095
28	0x3e93c2e7	0.28859636
29	0x3e1cf1b3	0.15326576
30	0x3defd1c6	0.11709933
31	0x3dd9dcb0	0.10637796
32	0x3c7234d7	0.014783106
33	0xbe18cf19	-0.14922751
34	0x3e2ed259	0.17072429
35	0xbcedc62b	-0.029025158
36	0x3cddb909	0.02706577
37	0x3ee0dac4	0.43916905
38	0x3e6277f6	0.22116074
39	0xbd9482ce	-0.072515115
40	0x3d84a023	0.06475856
41	0x3dd90c8b	0.105980955
42	0xbd17afac	-0.037032768
43	0xbe0196a9	-0.12655129
44	0x3e3b1bd6	0.18272337
45	0x3c0de2d7	0.00866004
46	0x3f049f60	0.51805687
47	0x3e8c83a6	0.2744419
48	0x3d3127a7	0.043250706
49	0xbcf7843c	-0.030214421
50	0xbddd1def	-0.10796725
51	0x3d257da3	0.04040302
52	0xbd783d52	-0.060605355
53	0x3e4d1a8e	0.20029661
54	0xbd29f429	-0.041492615
55	0xbf2826ab	-0.65684
56	0xbdca9064	-0.098908216
57	0xbdab1a4f	-0.08354627
58	0xbda1ba80	-0.078969
59	0x3e2a030e	0.16602728
60	0x3eaa4b0e	0.33260387
61	0xbea4ac70	-0.3216281
62	0xbbf7eb91	-0.0075659235
63	0xbd59711a	-0.053086378
64	0xbf30384d	-0.6883591
65	0xbda69ff6	-0.08135979
66	0xbda45f49	-0.08025987
67	0x3d8fc8b4	0.07020703
68	0xbd7db8b5	-0.06194373
69	0x3e2425fb	0.16030113
70	0xbda16400	-0.078804016
71	0x3dc9127b	0.09817978
72	0x3d9a3cdf	0.075311415
73	0xbf2a7766	-0.6658844
74	0xbd257f7c	-0.04040478
75	0xbda8d550	-0.08243811
76	0x3d35fd73	0.04443116
77	0x3e411c3b	0.18858425
78	0x3dfca484	0.12336066
79	0x3ebca6df	0.36846063
80	0xbd11eb19	-0.035624597
81	0xbbbdebfd	-0.0057959543
82	0xbed5ca90	-0.41756105
83	0xbec88f5e	-0.3917188
84	0x3de69833	0.112594984
85	0xbdf4c790	-0.11952126
86	0xbe06da12	-0.13169125
87	0x3db235a7	0.087016396
88	0x3d9b0394	0.07569042
89	0xbcc00fde	-0.023445066
90	0x3d694122	0.05694688
91	0xbf0a4ef6	-0.54026735
92	0xbf163394	-0.5867245
93	0x3d08adba	0.033368804
94	0xba7c86bc	-0.0009633114
95	0x3dd003e7	0.10156994
96	0x3ba8d5a5	0.0051524215
97	0x3de99b28	0.11406547
98	0xbb92e597	-0.0044829356
99	0xbde440a9	-0.111451454
100	0xbecfbf4d	-0.40575638
101	0xbeefe890	-0.4685712
102	0xbe2a8229	-0.16651215
103	0xbcec643c	-0.02885639
104	0x3dd151bf	0.1022067
105	0x3d0b33da	0.033984996
106	0xbd84cd38	-0.06484455
107	0x3d604eb0	0.054762542
108	0x3d9ad2f4	0.07559767
109	0x3dd9d032	0.10635413
110	0x3e0ebd3d	0.13939376
111	0xbe1b6556	-0.15175375
112	0x3e17227f	0.14759253
113	0x3d2f35b6	0.042775832
114	0x3e0920b2	0.13391379
115	0x3d888005	0.06665043
116	0x3c72050a	0.014771709
117	0xbe3dc812	-0.18533352
118	0x3e048218	0.12940252
119	0x3e763c24	0.2404638
120	0xbde04af0	-0.10951793
121	0x3d835a47	0.064137034
122	0x3da2954f	0.079386346
123	0x3ce2934a	0.027658124
124	0xbd3a690e	-0.045510344
125	0x3e1a1744	0.15047938
126	0xbe2235ad	-0.15840788
127	0x3c749d7a	0.014930123
128	0xbc93ff47	-0.018066062
129	0xbdc8139c	-0.09769365
130	0x3e066d84	0.13127714
131	0xbe11ca12	-0.1423724
132	0x3cc6fced	0.024290526
133	0x3ea3e45d	0.32010165
134	0x3d90e457	0.07074802
135	0xbcc7867e	-0.024356123
136	0x3d1643e3	0.036685836
137	0xbc352797	-0.011056802
138	0xbd4a1205	-0.04933359
139	0x3e0fbb96	0.14036402
140	0x3d40e673	0.047094774
141	0xbd34fb61	-0.044185046
142	0x3e8ea065	0.27856746
143	0x3e0949c0	0.1340704
144	0x3e1e788d	0.15475674
145	0xbe490a92	-0.19632939
146	0x3dee28d3	0.1162888
147	0x3d86d122	0.06582858
148	0xbe2fcd49	-0.17168154
149	0xbe7fbae6	-0.2497364
150	0xbc986fe1	-0.018608036
151	0x3e8432d7	0.25820038
152	0xbcf5763a	-0.029963601
153	0x3d24f029	0.040268097
154	0xbe46d6ae	-0.19417831
155	0x3dfa107b	0.12210175
156	0xbd88c137	-0.06677478
157	0x3c764a3b	0.015032346
158	0x3e47961b	0.19490854
159	0xbe592007	-0.21203624
160	0x3d2c3877	0.042046037
161	0x3c80ec40	0.015737653
162	0xbe84300c	-0.25817907
163	0x3f04e254	0.5190785
164	0xbe1b57ec	-0.15170258
165	0xbe4c267b	-0.19936554
166	0xbdf58197	-0.11987608
167	0x3e22e826	0.1590887
168	0xbcabf03d	-0.020988578
169	0x3e619744	0.2203036
170	0xbb6e99d2	-0.0036407602
171	0xbd4405e7	-0.04785719
172	0x3f3527f5	0.70764095
173	0xbec8e0be	-0.39233965
174	0x3de7ff09	0.11327941
175	0x3e2db318	0.1696285
176	0xbe5c47be	-0.21511742
177	0x3d17966e	0.037008695
178	0xbccbfe7f	-0.024901627
179	0x3d1aa09a	0.037750818
180	0xbdae8af8	-0.085226
181	0x3f28dd76	0.6596292
182	0xbecd8a78	-0.40144706
183	0x3ca63507	0.020288957
184	0xbdc1f468	-0.09470445
185	0xbe083236	-0.13300404
186	0x3ec38a42	0.3819142
187	0xbe0c6a0d	-0.1371233
188	0x3cfc180d	0.030773187
189	0x3d819990	0.06328118
190	0x3df4fb20	0.11961961
191	0xbe169f7f	-0.1470928
192	0x3bd21fa4	0.0064124633
193	0x3d4e32e3	0.050341498
194	0x3e2d793a	0.16940776
195	0x3d9a99c9	0.075488634
196	0x3c5353f8	0.012898438
197	0xbd6dc0c5	-0.058045167
198	0x3e084171	0.13306214
199	0x3ec30d00	0.38095856
200	0xbe47fcca	-0.19530025
201	0xbe10c986	-0.14139375
202	0xbd96d8b6	-0.07365553
203	0xbe05098c	-0.12991923
204	0x3e474644	0.19460398
205	0xbefae5d0	-0.49003458
206	0x3d19e74e	0.037574105
207	0xbe13fcf9	-0.1445197
208	0x3e137400	0.14399719
209	0xbe8b0098	-0.2714889
210	0x3d26cc4c	0.040722176
211	0xbdaa4654	-0.08314195
212	0x3d2d3dc7	0.042295244
213	0x3d97bfdd	0.07409642
214	0x3d7062ac	0.05868785
215	0x3cb0ef83	0.021598583
216	0x3fcafacb	1.5857786
217	0x3d8b3fac	0.06799254
218	0x3e8867ea	0.2664178
219	0x3d2389cb	0.03992633
220	0xbdcce03e	-0.10003708
221	0x3e15400c	0.14575213
222	0x3dadeff2	0.084930316
223	0x3d8a2953	0.06746163
224	0xbda0049c	-0.07813379
225	0x3fc276c9	1.51925
226	0x3df4885a	0.119400695
227	0x3dad4bd9	0.084617324
228	0x3a8aaeb5	0.0010580631
229	0x3a9820b4	0.0011606426
230	0xbd18b0e3	-0.037278067
231	0x3e2cf38c	0.16889781
232	0xbc232ba3	-0.009959134
233	0xbdea6114	-0.114442974
234	0x3fccb89c	1.5993838
235	0x3e652dab	0.22380702
236	0x3ddbc431	0.1073078
237	0x3dc897b7	0.09794562
238	0x3c99b1aa	0.018761475
239	0x3da502ab	0.080571495
240	0x3cdb977e	0.026805636
241	0xbddbebf8	-0.10738367
242	0x3e55639e	0.20838782
243	0x3ea21440	0.31656075
244	0xbe9c4324	-0.30519974
245	0x3e85ea0e	0.26155132
246	0xbccc5bae	-0.02494606
247	0x3d93d8b4	0.07219067
248	0x3d5a9617	0.053365793
249	0x3d25cc4c	0.040478036
250	0xbec83a69	-0.39107063
251	0x3d814b44	0.06313184
252	0x3f093c3f	0.53607553
253	0xbcea56a4	-0.028605767
254	0x3eb49887	0.3527262
255	0xbd51e87f	-0.051247116

sequential_2/conv1d_5/Conv1D f4 [64, 1, 3, 64]
0	0xbcaa8f10	-0.02082017
1	0xbc99a4b5	-0.018755296
2	0xbc8185fe	-0.015810963
3	0x3c932c96	0.017965596
4	0x3d8e0dd4	0.06936231
5	0x3c85f7c2	0.016353492
6	0x3e0b14d7	0.13582169
7	0xbb17bb23	-0.0023152314
8	0xbeaa48a1	-0.33258536
9	0xbde57183	-0.11203291
10	0x3e1b43a3	0.1516252
11	0xbe2b0e89	-0.16704763
12	0x3dad3bfd	0.084587075
13	0xbd036cff	-0.03208637
14	0x3df85cb7	0.12127059
15	0x3ae21150	0.0017247591
16	0x3ceacb63	0.028661435
17	0xbd8a2ea8	-0.0674718
18	0xbdf70d51	-0.12063087
19	0xbce193ee	-0.027536359
20	0xbe5bc3b2	-0.2146137
21	0x3d3f4616	0.0466977
22	0x3d9f0cf2	0.07766141
23	0x3dd731cf	0.10507547
24	0x3dd605ce	0.10450326
25	0x3d06001f	0.03271496
26	0xbe34f3da	-0.17671147
27	0xbe171b2b	-0.14756458
28	0x3d78da09	0.06075481
29	0x3db95b22	0.09050585
30	0x3dc663d8	0.096870124
31	0xbbae21e0	-0.005314097
32	0xbd4c3a48	-0.04986027
33	0xbe023d01	-0.12718584
34	0xbd1bdb65	-0.038051028
35	0x3d8bba91	0.06822694
36	0xbcf97a15	-0.030453721
37	0x3e1487c5	0.14504917
38	0xbde30b72	-0.110861674
39	0x3cc5f31b	0.024163773
40	0xbbabecd5	-0.0052467384
41	0xbe0200b4	-0.1269558
42	0x3bd5d592	0.0065257037
43	0x3d4588ec	0.048226282
44	0x3de6f6f6	0.11277573
45	0x3d2e6d14	0.042584494
46	0xbdef9f1a	-0.11700268
47	0xbe084330	-0.1330688
48	0xbd7bb198	-0.061448663
49	0xbd67c683	-0.0565858
50	0xbd94f098	-0.07272452
51	0xbd7dc1e8	-0.0619525
52	0xbcb01f9a	-0.021499444
53	0xbdc34116	-0.095338985
54	0x3d31c96d	0.043404985
55	0x3e163f03	0.14672475
56	0xbe1075ce	-0.14107439
57	0xbc24efab	-0.010066907
58	0xbe1f6c07	-0.15568553
59	0xbe5ce918	-0.21573293
60	0x3d9aa050	0.075501084
61	0x3d2d22d8	0.042269558
62	0x3e1040c8	0.14087212
63	0x3b19e995	0.0023485173
64	0x3e0426ae	0.1290538
65	0xbce872bc	-0.028375022
66	0x3d32382d	0.043510605
67	0x3c9d506d	0.019203389
68	0xbcc403a5	-0.02392752
69	0x3e14b006	0.14520273
70	0x3d1a3bb1	0.037654582
71	0x3d2c2168	0.042024046
72	0x3cd67a3f	0.026181338
73	0x3c02a30a	0.007973442
74	0x3d7aba58	0.061212867
75	0xbda8f681	-0.08250142
76	0xbd3cbcb8	-0.046078414
77	0xbca9d270	-0.020730227
78	0xbd42af5c	-0.047530517
79	0x3dcd90c2	0.10037376
80	0xbccf7793	-0.025325572
81	0xbbed5690	-0.007242985
82	0x3dac3298	0.084080875
83	0x3c4c2a5c	0.012461271
84	0xbd43f006	-0.047836326
85	0xbe07f3b2	-0.13276556
86	0x3d3999d0	0.045312703
87	0x3dc3a950	0.09553778
88	0x3ba57ec1	0.0050505106
89	0xbe338fcb	-0.17535321
90	0xbe25aae8	-0.16178477
91	0x3c4b5a4a	0.012411663
92	0x3e0d6196	0.13806757
93	0x3e54e66c	0.20791024
94	0x3d19898d	0.037484694
95	0xbe2f410a	-0.17114654
96	0x3c11e97f	0.008905767
97	0xbe529b15	-0.20566972
98	0xbcd068b5	-0.025440553
99	0x3e0df5e5	0.13863333
100	0x3d31d0e9	0.043412123
101	0x3e07be3e	0.13256165
102	0x3d178ca2	0.036999352
103	0xbd9bf3a3	-0.076148294
104	0x3cd71c3b	0.026258579
105	0xbd8852c5	-0.06656412
106	0x3d751323	0.059832703
107	0x3c03bfdd	0.008041349
108	0x3d843401	0.064552315
109	0x3dd1f083	0.10250952
110	0xbe57d340	-0.21076679
111	0xbdafe9ee	-0.085895404
112	0xbe454339	-0.19263925
113	0xbdcc92b5	-0.0998892
114	0x3c8c2bc1	0.017110707
115	0xbe16fe9b	-0.14745562
116	0x3dfef406	0.124488875
117	0xbe3b7f71	-0.18310334
118	0x3e0f78de	0.14010951
119	0x3da154c8	0.07877499
120	0x3d883be6	0.0665205
121	0x3d4589c5	0.04822709
122	0xbe1024c1	-0.1407652
123	0xbe6e251f	-0.23256348
124	0xbe85d248	-0.26136994
125	0x3ddc4b14	0.107565075
126	0xbd3c76fc	-0.04601191
127	0x3deb9672	0.115033045
128	0x3c74b2f0	0.01493524
129	0x3dfd8fb5	0.123809256
130	0xbda354c4	-0.07975152
131	0x3d14adf3	0.036298703
132	0x3e0793fa	0.13240042
133	0xbd99c42c	-0.0750812
134	0x3e31601f	0.17321824
135	0xbd444a4d	-0.04792242
136	0xbe1b5455	-0.15168889
137	0x3dc0eac7	0.0941978
138	0x3db429b9	0.087970205
139	0x3c1b62ee	0.009484036
140	0x3dd7103e	0.10501145
141	0xbc860f0c	-0.016364597
142	0xbcbd4daa	-0.023108322
143	0xbcc38ecb	-0.0238718
144	0xbd288cbb	-0.041149836
145	0x3c04240e	0.008065237
146	0x3d0f9315	0.035052378
147	0xbd8d1cbc	-0.06890246
148	0x3da59e1e	0.08086799
149	0xbe5019df	-0.20322369
150	0x3df8ce3c	0.12148711
151	0xbd3f0107	-0.04663184
152	0x3e406ca6	0.18791446
153	0xbe1bf9f5	-0.1523207
154	0xbdd09712	-0.101850644
155	0x3d742cca	0.059613027
156	0x3c351931	0.011053369
157	0x3e1fc3b4	0.15601999
158	0xbd71b308	-0.059008628
159	0x3c948729	0.018130856
160	0x3dd1889a	0.10231133
161	0xbe152181	-0.14563562
162	0x3d485d74	0.04891725
163	0x3e0baf29	0.13641037
164	0xbdb9f95f	-0.09080767
165	0x3d4898ba	0.048973776
166	0x3c44ad18	0.012004159
167	0xbd919a9a	-0.07109566
168	0x3d3626b2	0.044470496
169	0xbe03c9cc	-0.12869948
170	0x3d97123c	0.07376525
171	0xbd385c5d	-0.04500996
172	0x3d21a8ff	0.039467808
173	0xbdb003b3	-0.085944556
174	0x3d8a27f9	0.067459054
175	0xbcea93b2	-0.02863488
176	0xbd3f66fe	-0.04672908
177	0xbc6e9425	-0.014561688
178	0xbd63cd67	-0.05561581
179	0xbe52d78b	-0.20590036
180	0xbcfe36fa	-0.031032074
181	0xbe69d340	-0.22834492
182	0xbc97a6d1	-0.018512161
183	0x3da1b15d	0.078951575
184	0xbe1c598e	-0.15268537
185	0x3d4c5f09	0.04989532
186	0xbe08a541	-0.1334429
187	0xbddb21b8	-0.10699791
188	0xbda73f8d	-0.08166418
189	0x3c895acf	0.016766934
190	0xbe131635	-0.1436394
191	0x3da9c17c	0.08288857
192	0x3d6fbbe6	0.058528803
193	0x3e22417e	0.15845296
194	0xbe9eec21	-0.31039527
195	0xbe1e6a27	-0.15470181
196	0x3e1cd1d4	0.15314418
197	0x3e3164fb	0.17323677
198	0x3e02dc1c	0.12779278
199	0xbd8ac2ec	-0.0677546
200	0xbe64b976	-0.22336373
201	0xbdae4998	-0.08510131
202	0x3dbbd1c4	0.09170869
203	0x3d7c60ed	0.061615873
204	0xbdf9a017	-0.12188738
205	0x3e564190	0.20923448
206	0x3cbaa9c7	0.022786034
207	0xbd10e389	-0.035373244
208	0x3e4cdb92	0.20005634
209	0x3d60a4a0	0.0548445
210	0xbd13a5c6	-0.036046766
211	0xbe0be88f	-0.13662933
212	0x3cde9ada	0.027173448
213	0x3d12b438	0.0358164
214	0x3c4295b9	0.011876517
215	0xbd804fbf	-0.0626521
216	0xbd2c2220	-0.04202473
217	0x3d21ab6e	0.03947013
218	0xbe05f4e6	-0.13081703
219	0x3e484537	0.19557653
220	0xbd7b93e8	-0.06142035
221	0xbd9f5a17	-0.07780855
222	0xbe395a3d	-0.1810083
223	0x3dde5dd0	0.10857737
224	0x3e9191bb	0.28431496
225	0xbe4fd616	-0.20296511
226	0x3e1c7b4b	0.15281408
227	0xbe410569	-0.1884972
228	0x3e26daa8	0.16294348
229	0x3e066de2	0.13127854
230	0xbe10a8b2	-0.14126852
231	0x3d8775a0	0.06614232
232	0xbe27f76c	-0.16402978
233	0xbd3f3d29	-0.046689186
234	0xb9c3cdb9	-0.00037346574
235	0xbe2b1ec9	-0.16710962
236	0xbdc4e7b2	-0.09614505
237	0x3d4e5e4c	0.050382897
238	0x3da7e83d	0.08198593
239	0xbd930df6	-0.07180397
240	0x3d30aa0a	0.043130912
241	0x3dd2b873	0.10289087
242	0xbd9433bf	-0.07236432
243	0xbe3cda61	-0.1844268
244	0x3deda3d9	0.11603517
245	0x3d84c4df	0.06482863
246	0x3b54bf7c	0.0032462766
247	0xbdb31418	-0.08744067
248	0xbe0aa228	-0.1353842
249	0xbe167f93	-0.14697103
250	0xbe796e81	-0.2435856
251	0x3d835380	0.06412411
252	0x3d7db81e	0.061943166
253	0xbdb6595c	-0.08903763
254	0xbe16003c	-0.14648527
255	0xbd265efc	-0.040617928
