data_processing/noMovement_all_model.tflite (tflite, 660280 bytes, 8 tensors)

sequential/dense/BiasAdd/ReadVariableOp f4 [100]
0	0x3e4cd36c	0.20002526
1	0x3e3ac9e3	0.18241076
2	0xbc81128b	-0.015755912
3	0xbdb9b74b	-0.090681635
4	0xbcdd7a19	-0.02703576
5	0x3d492b72	0.0491137
6	0x3e039bcb	0.12852399
7	0x3e257447	0.16157638
8	0xbda9da14	-0.08293548
9	0xbe1315dc	-0.14363807
10	0xbdb22094	-0.0869762
11	0xbe41bdd8	-0.18920076
12	0xbdc6606d	-0.096863605
13	0xbec754d2	-0.389319
14	0xbe165f0f	-0.146847
15	0xbe6dbac9	-0.23215784
16	0xbdc360d1	-0.09539951
17	0xbd2b0456	-0.041752182
18	0x3e45740c	0.1928255
19	0x3b38e61b	0.0028213325
20	0x3e89e8aa	0.2693532
21	0xbd1267b0	-0.035743415
22	0xbd62a82b	-0.05533616
23	0xbdc5b932	-0.09654464
24	0xbd7e7b99	-0.06212959
25	0x3d897939	0.067125745
26	0xbc8504de	-0.016237672
27	0xbd9fea1a	-0.07808323
28	0xbe67f431	-0.22651745
29	0xbe936edf	-0.28795525
30	0xbcefa6f1	-0.029254409
31	0x3df34a79	0.11879439
32	0xbddfd6fb	-0.10929676
33	0xbd039ceb	-0.03213207
34	0x3e39cbda	0.1814417
35	0x3cc52661	0.024066152
36	0xbd9959b8	-0.074878156
37	0x3e05da4c	0.13071555
38	0xbe0365a9	-0.12831749
39	0x3de03e9e	0.10949443
40	0xbdd032da	-0.10165949
41	0xbdc1d7d3	-0.09464993
42	0x3e6ec474	0.23317128
43	0x3d8dadf8	0.069179475
44	0x3e7626ed	0.24038287
45	0xbce83697	-0.028346343
46	0x3e8d227d	0.27565375
47	0x3c0173cb	0.007901142
48	0x3bda69b2	0.006665432
49	0xbdcc2b54	-0.09969202
50	0xbe557082	-0.208437
51	0x3e7c432f	0.24635004
52	0x3deb684d	0.11494503
53	0xbb9cc794	-0.0047845338
54	0xbd083934	-0.03325768
55	0x3e97c336	0.29641122
56	0x3e26f537	0.1630448
57	0x3d29463c	0.041326746
58	0xbd708316	-0.058718763
59	0xbdec9e3a	-0.11553617
60	0xbd1a6e08	-0.03770259
61	0x3d8db434	0.06919137
62	0xbe85bae1	-0.2611914
63	0xbd237cc5	-0.03991391
64	0xbef1b32c	-0.4720701
65	0xbd4462ec	-0.0479459
66	0x3ed3f945	0.41401115
67	0x3d98436f	0.07434737
68	0xbe33bf67	-0.17553483
69	0xbdf1a07c	-0.11798188
70	0x3e1e5de2	0.15465501
71	0xbde8aed7	-0.11361473
72	0x3e145ea1	0.14489223
73	0x3e75e927	0.24014722
74	0xbd381e36	-0.044950686
75	0x3e8e33d8	0.2777393
76	0xbd905ece	-0.070493326
77	0xbcc49029	-0.023994522
78	0xbdf2b4d3	-0.11850896
79	0x3de68ee3	0.11257722
80	0xbd854782	-0.0650778
81	0xbe4efb2b	-0.20213
82	0xbda4bed7	-0.08044212
83	0x3e5dac25	0.21647699
84	0xbde00709	-0.10938842
85	0xbca11696	-0.01966409
86	0x3d0107a7	0.03150144
87	0xbe0fe9d4	-0.14054042
88	0xbe0e12f6	-0.1387442
89	0xbd7814ed	-0.06056683
90	0x3d0e1f4d	0.03469782
91	0xbcba5460	-0.022745311
92	0xbdfee0f5	-0.12445251
93	0x3e0319b6	0.12802777
94	0x3db9950e	0.09061633
95	0xbf0e5666	-0.55600584
96	0x3d648a23	0.0557958
97	0xbc928879	-0.01788734
98	0xbd6852cf	-0.056719597
99	0x3d8b5ade	0.06804441

sequential/dense_1/BiasAdd/ReadVariableOp f4 [13]
0	0xbeda30fc	-0.42615497
1	0x3fa7af0f	1.3100299
2	0x3e1cf76f	0.15328763
3	0xbdd7af68	-0.10531503
4	0x3da5f2d3	0.08102956
5	0xbd32f3fd	-0.043689717
6	0xbdba43a1	-0.090949304
7	0xbfca1f39	-1.5790778
8	0x3e662c8f	0.22477935
9	0x3dc9b322	0.0984862
10	0xbdbcf12b	-0.09225687
11	0x3d6b8e26	0.05750861
12	0xbd8f9819	-0.07011432

sequential/conv1d/BiasAdd/ReadVariableOp f4 [64]
0	0x3e277a03	0.16355138
1	0xbd04a37b	-0.03238247
2	0x3e21709e	0.15765616
3	0xbd9c355c	-0.07627365
4	0xbad66457	-0.0016356808
5	0xbdc658e3	-0.096849225
6	0xbcc727fa	-0.024311054
7	0xbf3589ec	-0.7091358
8	0xbe09e2ed	-0.13465472
9	0x3c1ef40e	0.009701742
10	0xbf165409	-0.5872198
11	0xbdb97f0d	-0.09057436
12	0x3c309d21	0.01077965
13	0x3c802d7d	0.01564669
14	0xbe36c4c1	-0.17848493
15	0x3e55cb23	0.20878272
16	0xbd4e13da	-0.0503119
17	0x3d5f8d69	0.05457822
18	0xbd8233dd	-0.063575484
19	0x3de2dea2	0.1107762
20	0x3e334a8b	0.17508905
21	0xbde9d7d1	-0.11418117
22	0x3c691afb	0.014227624
23	0xbd972842	-0.073807254
24	0xbb838811	-0.004014023
25	0x3c753b91	0.014967815
26	0x3dcc3a0a	0.099720076
27	0xbcc68ee8	-0.024238065
28	0xbe4f2524	-0.20229012
29	0xbd61f9fb	-0.05517004
30	0xbe8e4e82	-0.27794272
31	0xbe4dcb3f	-0.20097063
32	0xbdaa3c50	-0.08312285
33	0x3e0414a1	0.12898494
34	0xbd8d93a1	-0.069129236
35	0xbe267628	-0.1625601
36	0xbcba0a24	-0.022709914
37	0x3e377366	0.17915115
38	0x3e2270e0	0.15863371
39	0xbdd70371	-0.10498703
40	0xbf204b95	-0.6261533
41	0xbe7447d0	-0.2385552
42	0xbd021fb4	-0.031768516
43	0x3e1ba4f6	0.15199646
44	0xbe8e9190	-0.2784543
45	0x3cd975d6	0.026545446
46	0x3dcbe09a	0.09954949
47	0xbe96b950	-0.29438257
48	0x3e0221c0	0.12708187
49	0x3d4bb9a9	0.049737606
50	0xbf0030db	-0.5007455
51	0x3cdff70b	0.027339479
52	0xbde2e9ba	-0.11079736
53	0x3d9d4b27	0.0768035
54	0x3e91ccad	0.28476468
55	0xbd636127	-0.055512574
56	0xbd4effbc	-0.050536856
57	0x3dbdb970	0.09263885
58	0x3b02fe37	0.001998795
59	0x3e53aac4	0.2067061
60	0xbd9b78ac	-0.07591376
61	0xbddf1143	-0.10891964
62	0xbe04c2fe	-0.12965009
63	0x3d2a89d2	0.041635342

sequential/conv1d_1/BiasAdd/ReadVariableOp f4 [64]
0	0x3e3bc836	0.18338093
1	0xbf080777	-0.5313639
2	0x3ea4caef	0.32186076
3	0x3de71586	0.11283402
4	0x3b5b2d58	0.0033443775
5	0xbe416659	-0.18886699
6	0x3ec75f62	0.3893996
7	0xbe7abe5c	-0.24486679
8	0xbe477311	-0.19477488
9	0xbd871790	-0.06596291
10	0x3dabb5a0	0.083842516
11	0xbdd0987d	-0.10185335
12	0xbe9407d1	-0.28912213
13	0x3e84a8c4	0.25910008
14	0x3dba19ae	0.09086929
15	0xbd9fc595	-0.07801358
16	0x3d824ec9	0.06362683
17	0x3e886c64	0.26645195
18	0xbeff0316	-0.49807042
19	0xbde34dcc	-0.11098823
20	0x3dbb8d89	0.09157855
21	0xbe06e3fe	-0.1317291
22	0x3e0ae7df	0.13565014
23	0x3e4e113f	0.20123766
24	0xbd2bca65	-0.041941065
25	0xbe8c5294	-0.27406752
26	0xbe918afd	-0.28426352
27	0xbcfb6d5c	-0.030691795
28	0xbe99b456	-0.30020398
29	0x3ec38a08	0.38191247
30	0x3e49217a	0.19641677
31	0x3e30e755	0.17275746
32	0x3dd6023e	0.104496464
33	0xbd81a490	-0.06330216
34	0xbe624dbc	-0.22099966
35	0x3e48765d	0.19576402
36	0x3e5ca464	0.21547085
37	0xbf4a1916	-0.7894453
38	0x3d7fee2b	0.062482994
39	0xbe9f8833	-0.311586
40	0xbeb0cd5c	-0.34531677
41	0xbe44037a	-0.19141951
42	0x3e0d8f10	0.13824105
43	0x3dda0eea	0.10647376
44	0x3c4f5d0b	0.0126564605
45	0x3e3e1714	0.18563491
46	0xbf689238	-0.9084811
47	0x3da5e8d0	0.08101046
48	0x3e6a258d	0.22865887
49	0x3cabb64b	0.020960947
50	0xbaa44ff8	-0.001253604
51	0x3cf08ce5	0.029364059
52	0xbd8ff5be	-0.070292935
53	0xbda2f0b5	-0.079560675
54	0xbd97e139	-0.07416005
55	0x3e76c6e8	0.24099314
56	0xbdf7acbd	-0.12093494
57	0x3b9e5c72	0.0048327977
58	0x3dc9f2d2	0.098607674
59	0x3dcddd3d	0.100519635
60	0xbe0162dc	-0.12635368
61	0x3d9f642b	0.077827774
62	0x3de45297	0.11148565
63	0x3e21ff26	0.15819988

sequential/dense/MatMul f4 [100, 1472]
0	0xbd40279d	-0.04691278
1	0xbde3e43d	-0.11127517
2	0xbd33be8e	-0.0438829
3	0xbdca0aab	-0.09865316
4	0xbb941298	-0.004518818
5	0xbd862786	-0.06550507
6	0xbc8f814a	-0.017517705
7	0xbe0bf35f	-0.13667057
8	0xbe319902	-0.17343524
9	0xbdcd3a41	-0.10020877
10	0x3ddb88b3	0.10719433
11	0xbb9c659c	-0.004772855
12	0xbdc084c8	-0.09400326
13	0x3e8f4863	0.27984914
14	0x3d0b6753	0.034034085
15	0xbdfa0863	-0.12208631
16	0x3e209439	0.15681542
17	0xbd97a8be	-0.07405232
18	0xbdbfec68	-0.09371263
19	0xbd0c9b81	-0.034327988
20	0x3d0466fa	0.03232477
21	0xbda65aa5	-0.08122758
22	0xbd93d689	-0.07218654
23	0xbd706022	-0.05868543
24	0xbdd64424	-0.104622155
25	0xbd519e03	-0.051176082
26	0x3d0d124b	0.034441274
27	0xbd42c858	-0.047554344
28	0x3d396846	0.04526546
29	0xbdfef365	-0.124487676
30	0x3d1e8c00	0.038707733
31	0xbd0cf6ff	-0.03441524
32	0x3be2475e	0.0069054803
33	0x3dc99b23	0.09844043
34	0x3c30f9cb	0.010801743
35	0x3c988b34	0.018621065
36	0x3d9c1930	0.07621992
37	0x3d11c2f0	0.035586298
38	0xbd8ffc3a	-0.0703053
39	0x3d894ef4	0.06704512
40	0xbdcb13e3	-0.099159025
41	0x3cf54ebe	0.029944774
42	0x3de1c143	0.1102319
43	0x3c7df363	0.015499922
44	0xbbb7c3ac	-0.0056080427
45	0xbe94248b	-0.2893413
46	0x3d293f51	0.04132015
47	0x3d39a961	0.045327548
48	0xbcfa3766	-0.030543994
49	0x3cb7e7fc	0.022449486
50	0xbe355a4e	-0.1771023
51	0xbc8a440e	-0.016878154
52	0xbd05198e	-0.032495074
53	0x3dc317b3	0.09526005
54	0xbd2bc625	-0.041937012
55	0x3c81679d	0.015796477
56	0x3d2ed0f1	0.04267973
57	0x3cc50100	0.024048328
58	0x3d885630	0.06657064
59	0xbd8faa9f	-0.07014965
60	0x3d773881	0.06035662
61	0xbcb20b79	-0.021733986
62	0xbda116ec	-0.078657
63	0x3d0fce89	0.035109077
64	0x3d90eec6	0.070767924
65	0xbd80026e	-0.062504634
66	0xbcd7a363	-0.026323026
67	0xbd6dc5d8	-0.058050007
68	0x3d236c68	0.039898306
69	0x3c926ba3	0.01787359
70	0x3d1e3177	0.038621392
71	0xbc5f0555	-0.013612111
72	0xbe78bd71	-0.24291016
73	0xbd48c6c6	-0.04901769
74	0x3d81574c	0.06315479
75	0x3be98b20	0.0071271807
76	0x3c2ad6a0	0.010427147
77	0x3dd05812	0.10173048
78	0xbd934aa8	-0.07191974
79	0xbda01e74	-0.078183085
80	0xba08ed35	-0.0005223335
81	0x3bd38058	0.0064545088
82	0xbc708bef	-0.0146818
83	0x3d2339a8	0.039849907
84	0x3baa3ffb	0.0051956153
85	0xbd66e76c	-0.056373045
86	0x3c0c5769	0.008565762
87	0xbc88bc67	-0.0166914
88	0xbd695ef7	-0.05697533
89	0xbd5a7b7a	-0.053340413
90	0xbdc274cc	-0.094949335
91	0x3d3027cf	0.043006714
92	0xbde3e2e1	-0.11127258
93	0xbae502a1	-0.0017472097
94	0xbd5ccd4b	-0.05390672
95	0x3d67d164	0.056596175
96	0xbd320043	-0.04345728
97	0x3d67059e	0.05640184
98	0xbd287623	-0.04112829
99	0xbdc4d93f	-0.09611749
100	0x3e08e836	0.13369831
101	0x3d1cc02c	0.038269207
102	0xbd780f67	-0.060561564
103	0xbdb09570	-0.08622253
104	0x3b267b3e	0.0025403048
105	0x3cc92db1	0.02455792
106	0x3e2856fa	0.16439429
107	0xbd77457f	-0.06036901
108	0x3bc6c046	0.0060654012
109	0xbe4b293f	-0.19839953
110	0xbdd04ab2	-0.10170497
111	0xba58d3bc	-0.0008271297
112	0x3dd4441a	0.10364552
113	0xbdac4d19	-0.08413143
114	0xbdafd822	-0.08586146
115	0xbe16c8e4	-0.14725071
116	0x3d94a485	0.07257942
117	0x3d06a340	0.03287053
118	0xbd3474fe	-0.044056885
119	0xbd255c45	-0.0403712
120	0xbd4fe203	-0.05075265
121	0xbcd13cdd	-0.025541717
122	0x3d0043e7	0.031314757
123	0xbe1e452a	-0.15456071
124	0x3d85e4c3	0.065377735
125	0x3922f773	0.00015541706
126	0x3d7203f7	0.059085812
127	0x3d374c31	0.044750396
128	0xbc057aca	-0.008146951
129	0xbc703502	-0.014661076
130	0xbe083e5b	-0.13305037
131	0xbd969b45	-0.07353834
132	0x3d0f61da	0.035005428
133	0xbce3a1d1	-0.027787121
134	0xbcab3fec	-0.020904504
135	0xbd8ef519	-0.069803424
136	0xbddf285e	-0.10896371
137	0xbd3cfced	-0.046139646
138	0x3da6d06a	0.081452206
139	0xbb8fff2c	-0.0043944325
140	0xbc920a8a	-0.017827291
141	0x3e141ab5	0.14463313
142	0x3ce8fe1d	0.028441483
143	0xbd65a92d	-0.05606954
144	0x3c02e900	0.007990122
145	0x3b764787	0.0037579255
146	0xbb8ea022	-0.0043525854
147	0xbd52a895	-0.051430304
148	0xbb7c6e25	-0.00385178
149	0xbe6596ad	-0.2242076
150	0x3d596cb1	0.05308217
151	0xbd6f49ce	-0.058419995
152	0xbd34bf83	-0.044127952
153	0xbdcc0626	-0.0996211
154	0xbc72559e	-0.014790921
155	0xbcccd08f	-0.025001792
156	0xbd36f8ce	-0.044670872
157	0x3dc0083e	0.09376572
158	0xbbd7670f	-0.006573565
159	0x3d61ba7b	0.055109482
160	0xbcb8a9ae	-0.022541847
161	0x3d506db1	0.05088586
162	0x3958fefa	0.00020694351
163	0xbd830305	-0.0639706
164	0x3dad9398	0.08475417
165	0xbd259811	-0.040428225
166	0xbe390c07	-0.18070994
167	0xbd8d96b3	-0.06913509
168	0x3cb6defb	0.022323122
169	0xbc99e8b1	-0.018787714
170	0x3dbdf57c	0.09275338
171	0xbcddede6	-0.027090978
172	0x3ca58d1b	0.020208886
173	0xbdecd5b0	-0.11564195
174	0xbd579f7b	-0.052642327
175	0x3c3929d8	0.01130148
176	0x3e2f24f9	0.17103948
177	0x3d558191	0.052125517
178	0x3d04f699	0.032461736
179	0xbdb57a6f	-0.08861243
180	0xbac5216d	-0.0015039869
181	0xbd85c2f9	-0.06531329
182	0xbd4832c3	-0.048876535
183	0x3da652c0	0.08121252
184	0xbd29caa6	-0.041453026
185	0xbda875e6	-0.08225612
186	0xbdf10547	-0.11768585
187	0xbdc42724	-0.09577778
188	0x3d14220d	0.036165286
189	0x3db9acb3	0.09066143
190	0xbe0ea977	-0.13931833
191	0xbd41451c	-0.04718505
192	0x3d4db856	0.050224625
193	0xbe569a13	-0.20957212
194	0xbe08cc38	-0.13359153
195	0x3d9a799c	0.075427264
196	0xbdfaf1cb	-0.122531496
197	0x3db54711	0.088514455
198	0x3ddf8b5a	0.10915251
199	0xbd13752a	-0.03600041
200	0xbd2444b0	-0.040104568
201	0xbe5be1ec	-0.21472901
202	0x3c8f1590	0.017466336
203	0xbd62783c	-0.055290446
204	0xbdede463	-0.11615827
205	0x3da1a0f7	0.0789203
206	0x3c11995e	0.008886663
207	0xbe36f623	-0.17867331
208	0x3c0bc904	0.008531813
209	0x3d474c8a	0.048656978
210	0xbddb15da	-0.10697527
211	0xbc85d0fa	-0.016335
212	0x3d9381b0	0.0720247
213	0xbdc2ed1b	-0.095178805
214	0x3c9ad05e	0.018898185
215	0xbdcbad04	-0.099451095
216	0xbdc90243	-0.098148845
217	0xbcff6153	-0.031174337
218	0xbd7be5b1	-0.061498348
219	0x3e1468d9	0.14493121
220	0xbd62914c	-0.055314347
221	0xbcaf1ced	-0.021376098
222	0xbd0314cc	-0.032002255
223	0x3cd3d9f5	0.025860766
224	0x3d802952	0.06257881
225	0xbc743c3a	-0.014906937
226	0xbd423676	-0.04741522
227	0x3d878157	0.066164665
228	0x3dcb707b	0.09933563
229	0xbe298e50	-0.16558194
230	0xbc825a1e	-0.015912112
231	0xbd9025e5	-0.07038478
232	0xbd3dfd1f	-0.046383973
233	0xbdbf0c9c	-0.09328577
234	0xbc995615	-0.018717805
235	0xbe1a8026	-0.15087947
236	0x3d851c71	0.064995654
237	0xbcb50831	-0.022098633
238	0x3ddfeb94	0.10933605
239	0xbd5785f2	-0.052617975
240	0x3d860d58	0.06545514
241	0x3d59b26a	0.053148665
242	0xbe3522ac	-0.17689008
243	0xbdc2fec6	-0.095212504
244	0xbdb814e7	-0.08988362
245	0xbd9907e9	-0.07472212
246	0xbb289cf5	-0.002572832
247	0x3d870a89	0.06593806
248	0x3dbb95b0	0.0915941
249	0xbd86a6b7	-0.06574767
250	0x3daa6a17	0.08321016
251	0xbd9f26a3	-0.07771041
252	0x3ced5026	0.028968882
253	0x3b80968f	0.003924198
254	0xbd9f058b	-0.07764729
255	0x3b6fc61e	0.0036586593

sequential/dense_1/MatMul f4 [13, 100]
0	0xbd175614	-0.036947325
1	0xb8e1c348	-0.0001076521
2	0x3d40a11e	0.047028653
3	0x3e2c6d29	0.16838516
4	0x3dd420b9	0.10357804
5	0x3e3bc835	0.18338092
6	0x3df77c37	0.12084239
7	0xbd50e6e7	-0.051001456
8	0x3e2ac3c0	0.16676235
9	0x3dfdbd5a	0.123896316
10	0x3e38c955	0.18045552
11	0x3e008bb9	0.125533
12	0xbde8a08c	-0.11358747
13	0x3e2dd2dd	0.16974969
14	0x3df51d91	0.1196853
15	0x3e123422	0.142777
16	0x3d2894ee	0.041157655
17	0xbd364d4f	-0.04450732
18	0x3c4a673f	0.012353717
19	0xbdaa9d2d	-0.0833076
20	0x3b35382b	0.0027651887
21	0x3d2a47c2	0.04157234
22	0x3c0d82b2	0.008637117
23	0x3deb2f7e	0.11483668
24	0xbd17d4c6	-0.03706815
25	0xbb33801a	-0.0027389587
26	0xbccdbdb1	-0.025114866
27	0xbe14ce2c	-0.14531773
28	0x3db58cac	0.08864722
29	0x3d5e7d57	0.054318752
30	0xbd4f3e60	-0.050596595
31	0x3d361bdc	0.044460163
32	0x3db976ca	0.0905586
33	0x3e082eb5	0.13299067
34	0x3aeae47f	0.001792088
35	0x3e10a6db	0.1412615
36	0x3dd6d318	0.10489482
37	0xbdae186d	-0.085007526
38	0x3d6aaff1	0.057296697
39	0xbe256171	-0.16150452
40	0x3e0af9ed	0.13571902
41	0x3cedbd91	0.029021056
42	0xbdaaa22f	-0.08331715
43	0xbc847589	-0.016169326
44	0xbde7e31f	-0.11322617
45	0xbce80238	-0.02832137
46	0xbd882ef5	-0.06649581
47	0xbe07d2f1	-0.13264062
48	0x3d278eec	0.040907785
49	0xbd50497b	-0.050851326
50	0x3cf408dd	0.029789383
51	0xbe3c32dc	-0.18378776
52	0xbcb370f2	-0.021904442
53	0x3e201f3e	0.15636918
54	0x3dec0fb3	0.11526432
55	0x3dee1277	0.11624616
56	0xbe01dc41	-0.12681676
57	0xbd098095	-0.03356989
58	0x3e1710ed	0.1475255
59	0xbe7b2144	-0.24524409
60	0x3c03f1db	0.008053268
61	0x3e32ec6e	0.17473003
62	0x3e05477e	0.13015553
63	0x3e16a705	0.1471215
64	0x3dac450f	0.084116094
65	0x3e111a1a	0.14170113
66	0xbde973bd	-0.113990285
67	0x3e197a41	0.14988042
68	0x3aacb72c	0.0013177148
69	0x3e0675bd	0.13130851
70	0xbdf6eeb9	-0.120572515
71	0xbe4aa945	-0.19791134
72	0x3e1b7940	0.15182972
73	0xbe6f1e0d	-0.23351307
74	0xbc6d5738	-0.014486127
75	0xbe5108f0	-0.20413566
76	0x3e5a8cf6	0.21342835
77	0xbda46a3d	-0.08028076
78	0x3ddc4908	0.10756117
79	0xbd87386f	-0.06602561
80	0xbdd64ca1	-0.104638346
81	0xbe00f6c7	-0.12594138
82	0x3d124457	0.035709705
83	0x3d46a792	0.04849965
84	0x3cf234e2	0.029566232
85	0x3d8e3d38	0.0694527
86	0xbe0d630b	-0.13807313
87	0x3e4473f1	0.19184853
88	0x3e017677	0.12642847
89	0x3d9b7cd8	0.075921714
90	0x3d2ea691	0.04263932
91	0x3d83c674	0.06434336
92	0x3e0dab6e	0.13834926
93	0x3ddd6ca4	0.10811737
94	0x3d085ba2	0.033290513
95	0xbbc87843	-0.006117852
96	0xbd54e374	-0.05197473
97	0xbe05fb3d	-0.13084121
98	0xbe02a09a	-0.12756577
99	0xbdcb5f8c	-0.099303335
100	0xbd76e31f	-0.060275193
101	0x3d8e95ed	0.0696219
102	0xbd860fd6	-0.06545989
103	0x3cc759d5	0.024334827
104	0x3e283b0a	0.16428772
105	0x3e65b432	0.2243202
106	0x3dbffa49	0.0937391
107	0xbd87f8d8	-0.0663926
108	0xbe5efb00	-0.21775436
109	0xbd8a3511	-0.06748403
110	0x3e08617c	0.13318437
111	0xbcdf35da	-0.027247358
112	0x3d1ac93d	0.037789572
113	0x3cdefca2	0.027220074
114	0xbdd2f6bc	-0.10300967
115	0x3d0204f6	0.031743012
116	0x3c9e2c14	0.019308127
117	0xbd9a197e	-0.075243935
118	0x3d717be9	0.05895606
119	0x3e1145d8	0.141868
120	0x3d97a57b	0.0740461
121	0x3c011744	0.007879082
122	0xbe58670d	-0.21133061
123	0x3e07099e	0.13187262
124	0xbdcf4e8a	-0.10122402
125	0x3df86755	0.12129084
126	0xbe08bdf0	-0.13353705
127	0x3c85bf89	0.016326683
128	0x3e0112b6	0.12604794
129	0x3e3391ec	0.17536134
130	0xbdb697b6	-0.08915655
131	0x3da968cf	0.08271944
132	0xbd28fe14	-0.041257933
133	0x3e07f27c	0.13276094
134	0x3c36f04b	0.011165689
135	0x3e1e300c	0.15448016
136	0xbe2237d9	-0.15841617
137	0x3d86288e	0.06550704
138	0xbcb7ad24	-0.022421427
139	0x3db85528	0.09000617
140	0xbe4a6ea5	-0.1976877
141	0xbc0c3a50	-0.008558825
142	0x3c430344	0.011902634
143	0x3d11f7d2	0.03563673
144	0xbc9b7914	-0.018978633
145	0xbe061523	-0.13094
146	0x3c345127	0.011005676
147	0x3d16ab31	0.036784355
148	0xbd8195b4	-0.06327382
149	0x3ceb8d61	0.028753938
150	0xbe01d574	-0.12679082
151	0xbdaa64fb	-0.08320042
152	0x3e5ffbdb	0.21873419
153	0x3dda091c	0.10646269
154	0x3dd9ce20	0.10635018
155	0x3df83254	0.12118974
156	0x3d47f525	0.048817772
157	0x3d317f7b	0.043334465
158	0xbe4bf99c	-0.19919437
159	0xbdf70041	-0.12060595
160	0x3d231825	0.039817948
161	0x3d930e0d	0.07180414
162	0xbce67adc	-0.028134756
163	0x3dc2facf	0.09520494
164	0x3d3c8dc9	0.046033654
165	0x3dd4072b	0.1035293
166	0xbd978ad3	-0.073995255
167	0x3e3452b2	0.17609671
168	0xbdc485da	-0.09595843
169	0xbd5680eb	-0.05236904
170	0xbdef287e	-0.11677645
171	0x3df45e5d	0.11932061
172	0x3e0fa901	0.14029314
173	0xbdb75f39	-0.08953709
174	0x3cdc1115	0.026863614
175	0xbd5d0192	-0.053956576
176	0x3d585aab	0.052820843
177	0xbdc5685a	-0.09639044
178	0xbd4cc3e1	-0.049991492
179	0x3e03a1c1	0.12854673
180	0xbe2bbe53	-0.16771822
181	0xb93cc7ce	-0.0001800351
182	0xbcd38f85	-0.025825271
183	0xb9eb81d3	-0.0004491942
184	0x3d8d7a1b	0.069080554
185	0xbdc54bb5	-0.096335806
186	0xbd81b17f	-0.06332683
187	0x3dc46875	0.09590236
188	0xbd66ab80	-0.0563159
189	0xbc93907e	-0.018013235
190	0x3d9dbb2a	0.07701714
191	0xbc67395b	-0.014112796
192	0xbcd89001	-0.026435854
193	0x3e1ff678	0.15621364
194	0xbe5aac4c	-0.21354789
195	0x3cfa2b95	0.03053836
196	0xbe408937	-0.18802343
197	0xbe1cdf62	-0.15319589
198	0xbe0cf579	-0.13765515
199	0xbc6707d0	-0.014100984
200	0xbc434c02	-0.011919977
201	0xbe2c7cb6	-0.16844448
202	0xbec4967d	-0.38396063
203	0x3e67c41a	0.226334
204	0xbc19abc1	-0.009379328
205	0x3d666769	0.056250963
206	0xbdba754c	-0.09104404
207	0xbcf2b050	-0.029625088
208	0x3e930a2b	0.28718695
209	0x3d797c31	0.060909454
210	0x3ced2331	0.028947445
211	0xbc480ac4	-0.012209598
212	0x3dbe3ca6	0.092889115
213	0x3e40a45e	0.18812701
214	0xbe4bee6c	-0.1991517
215	0x3e8170c4	0.25281346
216	0xbe014d82	-0.12627223
217	0x3dac1124	0.08401707
218	0x3e58d9db	0.21176855
219	0x3de79ddb	0.113094054
220	0x3e2246cf	0.15847324
221	0x3d62770d	0.055289317
222	0x3e522812	0.20523098
223	0xbe003d82	-0.12523463
224	0x3cf8f972	0.030392382
225	0xbe0d99fb	-0.1382827
226	0xbe1281bd	-0.14307304
227	0xbe544a2a	-0.20731416
228	0x3dd341d9	0.10315294
229	0xbe3e4ea1	-0.18584682
230	0xbe995752	-0.29949433
231	0x3d918fb0	0.07107484
232	0x3d090912	0.033455916
233	0xbcf891d9	-0.030342983
234	0xbe6fa815	-0.23403962
235	0x3dc3410b	0.0953389
236	0xba960bfa	-0.0011447661
237	0x3e809df8	0.2512052
238	0xbdab191c	-0.083543986
239	0xbe0cbd4c	-0.13744086
240	0xbd8c4ae0	-0.06850219
241	0x3d1b9bb7	0.037990298
242	0x3d701925	0.05861773
243	0xbe048d72	-0.12944582
244	0x3da7e699	0.0819828
245	0x3e61ebd9	0.22062625
246	0x3e267ab3	0.16257744
247	0xbf1943ae	-0.59868896
248	0x3afd6fc0	0.0019335672
249	0x3ddc1992	0.10747065
250	0xbe118625	-0.14211328
251	0x3d36ae4d	0.04459982
252	0xbee551d3	-0.4478899
253	0xbec971a3	-0.3934451
254	0xbd63ed1b	-0.055646043
255	0xbe8690c5	-0.26282325

sequential/conv1d/Conv1D f4 [64, 1, 3, 15]
0	0xbecf02bb	-0.4043177
1	0x3ec507d1	0.38482526
2	0xbcc79aed	-0.024365867
3	0x3a181984	0.0005802142
4	0xbb1d753c	-0.0024026176
5	0x3deb2a38	0.11482662
6	0xbda50d1c	-0.08059141
7	0x3d78b1e8	0.06071654
8	0xbd2b2d22	-0.04179109
9	0x3ea5410d	0.32276192
10	0xbe1762d1	-0.14783789
11	0xbf3f14b8	-0.7464099
12	0xbcfd8622	-0.030947749
13	0x3d41b773	0.04729409
14	0x3cba69b9	0.02275549
15	0xbe6a57b8	-0.22885025
16	0x3e684134	0.22681123
17	0xbc7dcd13	-0.015490788
18	0xbdb13c0e	-0.08654033
19	0x3c999a18	0.018750235
20	0x3c81cc06	0.015844356
21	0x3d33176d	0.043723512
22	0x3e838c10	0.25692797
23	0x3e8d45cd	0.27592316
24	0x3f0c40f3	0.54786605
25	0xbe69d85f	-0.22836445
26	0xbf43de66	-0.7651123
27	0xbd23bb19	-0.039973352
28	0xbbd605ff	-0.0065314765
29	0xbdd3ab82	-0.10335447
30	0xbef6e9a3	-0.48225126
31	0x3ed70e2c	0.42003
32	0xbe7be7d3	-0.24600153
33	0xbd8c15d4	-0.06840101
34	0x3c3caeea	0.011516312
35	0x3d903700	0.070417404
36	0xbd1c9eb4	-0.03823729
37	0x3cdbd78c	0.02683618
38	0x3e892c1b	0.26791462
39	0x3ef03776	0.46917313
40	0xbdccd1bd	-0.10000942
41	0xbf2efbc5	-0.6835292
42	0xbccf3b0d	-0.025296712
43	0xbb858238	-0.004074361
44	0xbd728483	-0.059208404
45	0xbd42e8a3	-0.04758514
46	0x3ecbb18a	0.3978389
47	0x3d6e9d5e	0.058255546
48	0xbd4c6866	-0.04990425
49	0x3c97e1dd	0.018540317
50	0x3e07d73d	0.132657
51	0x3dd916fe	0.106000885
52	0xbea9af50	-0.33141565
53	0xbd6e8486	-0.058231853
54	0x3d9942d7	0.07483452
55	0x3e41af5f	0.18914555
56	0x3d95a468	0.07306749
57	0xbdd98c43	-0.10622456
58	0x3ca63db8	0.020293102
59	0x3dcb2b11	0.09920324
60	0xbd847288	-0.064671576
61	0x3e95ecbd	0.2928218
62	0x3d60f8bc	0.05492471
63	0x3e435d9b	0.19078676
64	0x3d0f4029	0.034973297
65	0xbe7b696f	-0.24551938
66	0xbc2a88f6	-0.010408631
67	0x3d14cd33	0.036328506
68	0xbd350468	-0.044193655
69	0x3d9089a1	0.07057501
70	0x3df3b541	0.11899806
71	0x3e021600	0.12703705
72	0x3d72b304	0.059252754
73	0xbcc63eeb	-0.024199924
74	0xbdfda940	-0.123857975
75	0xbdc55b0d	-0.09636507
76	0x3ea3377f	0.31878278
77	0x3dfeb3c6	0.12436633
78	0xbdfe1c88	-0.12407786
79	0xbdc94996	-0.098284885
80	0x3e0ea4da	0.13930073
81	0x3e5f7ade	0.21824214
82	0xbdac10f5	-0.08401672
83	0xbcdb5da2	-0.026778046
84	0x3e849cac	0.2590078
85	0x3dfcc436	0.12342112
86	0x3e112818	0.14175451
87	0xbba2f2fe	-0.0049728146
88	0xbd44fa26	-0.048090123
89	0x3d925ec9	0.07146985
90	0x3ea50629	0.32231262
91	0x3eb7ca3d	0.35896483
92	0xbd689c26	-0.05678954
93	0x3de134e0	0.10996413
94	0x3d778f6e	0.06043952
95	0xbd20bd24	-0.03924288
96	0xbd539d72	-0.051663823
97	0x3ca8a11b	0.020584634
98	0xbc95760b	-0.018244764
99	0xbed71bb1	-0.42013314
100	0x3ecd2a98	0.4007156
101	0xbf405e98	-0.7514434
102	0xbde14821	-0.110000856
103	0xbdbc3ad9	-0.09190912
104	0xbdf2e9c4	-0.118609935
105	0x3e9eb64c	0.30998456
106	0x3e90917c	0.28235996
107	0xbe899d3f	-0.26877782
108	0x3cf51d44	0.029921181
109	0x3c042b73	0.008067
110	0x3d40bdd5	0.047056038
111	0x3de4ff05	0.111814536
112	0xbe782cf6	-0.24235901
113	0x3d34f138	0.044175357
114	0xbee59e88	-0.44847512
115	0x3eccf705	0.4003221
116	0xbf0e158d	-0.55501634
117	0x3cc8c25a	0.024506737
118	0x3c8e2065	0.017349431
119	0x3dbd4a0a	0.092426375
120	0x3e924775	0.28570142
121	0x3eddff58	0.43358874
122	0xbdc205ab	-0.09473737
123	0xbdc36d06	-0.09542279
124	0xbe05256c	-0.13002557
125	0xbb6e957f	-0.0036405025
126	0xbd9ae2ec	-0.07562813
127	0x3d8f26a6	0.069897935
128	0xbc422359	-0.011849248
129	0xbf164b25	-0.5870841
130	0x3ead6c30	0.33871603
131	0xbf2860ef	-0.6577291
132	0x3cd48ada	0.025945116
133	0x3de99e35	0.11407129
134	0x3c6a96cd	0.01431818
135	0x3cca6f2b	0.024711212
136	0xbdc95896	-0.098313496
137	0x3d707d3f	0.058713194
138	0x3d94f910	0.072740674
139	0xbc648483	-0.013947609
140	0xbe3e75d9	-0.18599643
141	0x3e650217	0.22364078
142	0x3e312c44	0.17302042
143	0x3e07fe4a	0.13280597
144	0xbe46da4b	-0.1941921
145	0xbe5f6b30	-0.21818233
146	0xbc8c0f4b	-0.017097136
147	0xbba5009b	-0.0050354726
148	0xbd99fdfc	-0.07519147
149	0x3ec87660	0.39152813
150	0x3deedf86	0.116637275
151	0xbebf61a3	-0.37379178
152	0xbd4cf3c2	-0.050037153
153	0xbd2c1690	-0.042013705
154	0x3d9b5ac6	0.07585673
155	0x3e196ed1	0.1498368
156	0xbda173ba	-0.07883401
157	0xbd93f0dd	-0.072236754
158	0x3ccf8303	0.025331026
159	0x3d53d257	0.051714268
160	0xbe23b4dc	-0.15986961
161	0xbe1b8f35	-0.15191348
162	0xbe0fc443	-0.14039712
163	0x3c056dac	0.008143824
164	0x3eaccb8f	0.33749053
165	0xbde127b6	-0.109939024
166	0xbe289ed1	-0.16466834
167	0xbdc0bd92	-0.09411158
168	0x3af85c36	0.001894838
169	0xbdc60fed	-0.09671006
170	0xbca5032b	-0.020143112
171	0x3e1fe312	0.15613964
172	0x3e5b10dc	0.2139315
173	0x3e244948	0.1604358
174	0xbdab134d	-0.08353291
175	0xbeb674f3	-0.356361
176	0x3c48f242	0.01226479
177	0x3df4f916	0.11961572
178	0x3c9b6f17	0.01897387
179	0x3de5f34f	0.11228048
180	0x3e7e1c9f	0.24815606
181	0x3e8a568f	0.27019164
182	0x3d6a5ced	0.057217527
183	0xbd446b3e	-0.047953837
184	0x3da6fae4	0.08153322
185	0x3dd8bf17	0.105833225
186	0x3d75bd0c	0.059994742
187	0xbd6c7556	-0.057729088
188	0x3d5251ed	0.05134766
189	0x3e4439ec	0.1916272
190	0x3e3c4f8c	0.1838972
191	0x3d614fbf	0.055007692
192	0x3e068e60	0.13140249
193	0xbdd06ac3	-0.10176613
194	0x3cb91c41	0.02259648
195	0x3e8f8fd1	0.2803941
196	0x3e400d26	0.18755016
197	0x3e913acb	0.28365168
198	0x3cfa9120	0.03058678
199	0x3d2f179a	0.042747118
200	0xbcd6d7bb	-0.026225915
201	0x3c817532	0.015802953
202	0xbe5bbf1b	-0.2145962
203	0xbd912fdc	-0.070892066
204	0x3ebd4557	0.36966965
205	0x3e45b965	0.19309004
206	0xbbf655a2	-0.0075175324
207	0xbe2a2d36	-0.16618809
208	0x3e38ca9c	0.1804604
209	0xbe1b3dda	-0.15160313
210	0x3db6279d	0.088942744
211	0x3eafbf8b	0.34325823
212	0x3d94e3a6	0.07269983
213	0x3d1f399d	0.038873304
214	0x3d76e22d	0.06027429
215	0x3d844996	0.06459348
216	0x3d0e30a9	0.034714375
217	0xbed3d9f9	-0.41377237
218	0xbc754ad9	-0.014971458
219	0x3efe9984	0.49726498
220	0x3e958cb6	0.29208916
221	0xbdcd6f77	-0.10031026
222	0xbdccc114	-0.09997764
223	0x3e49bd95	0.19701226
224	0xbe8799ca	-0.2648452
225	0xbd74e91c	-0.059792623
226	0xbea73528	-0.32657743
227	0xbe13e377	-0.1444224
228	0x3c92be22	0.017912928
229	0x3e5f7759	0.21822871
230	0xbd65b802	-0.056083687
231	0xbcd4048d	-0.025881076
232	0x3e399e5a	0.18126813
233	0xbc0fc117	-0.008774064
234	0xbbab4d50	-0.005227722
235	0x3d2738bd	0.040825594
236	0x3ee9e04d	0.4567894
237	0xbcb439e2	-0.022000257
238	0xbdbc91de	-0.092075095
239	0xbdccb55b	-0.09995528
240	0x3cc16479	0.02360748
241	0xbe6a54d8	-0.22883928
242	0xbeafc466	-0.34329528
243	0xbd53ed04	-0.051739708
244	0xbdddfd21	-0.10839296
245	0xbdb7fa74	-0.08983317
246	0x3da5aafe	0.08089255
247	0x3c3016fa	0.010747666
248	0x3c91ea40	0.017811894
249	0x3e62f4d6	0.2216371
250	0xbdd10d0e	-0.10207568
251	0x3edf7a38	0.43647933
252	0xbbf46705	-0.00745857
253	0xbd60d6c0	-0.0548923
254	0xbe79e460	-0.24403524
255	0x3d0cb831	0.034355346

sequential/conv1d_1/Conv1D f4 [64, 1, 3, 64]
0	0xbe89c9e7	-0.26911852
1	0x3db35b90	0.087576985
2	0x3cdbc872	0.026828978
3	0x3d14fbc6	0.036372922
4	0xbd3e733b	-0.04649661
5	0x3da6adab	0.08138593
6	0xbe0eeac1	-0.13956739
7	0xbdc14477	-0.09436887
8	0xbdcc4292	-0.09973635
9	0x3d65b2d0	0.056078732
10	0x3ce170bb	0.027519574
11	0x3df2b3ec	0.118507236
12	0x3c4af7c9	0.012388178
13	0xbcfa5312	-0.03055719
14	0xbd41349f	-0.047169324
15	0x3e296653	0.1654294
16	0x3d500fcc	0.050796315
17	0x3dc1d29a	0.09463997
18	0xbdafbe62	-0.085812345
19	0xbe26e448	-0.1629802
20	0xbc9dfabc	-0.019284599
21	0x3bae5e72	0.0053213174
22	0x3e52eaae	0.20597336
23	0xbd0b3cb2	-0.03399343
24	0xbda66f12	-0.08126654
25	0x3cd36403	0.025804525
26	0x3dc959cb	0.0983158
27	0x3e238642	0.15969184
28	0xbe5beb44	-0.21476465
29	0x3ddffadc	0.109365195
30	0x3c437ae1	0.011931152
31	0xbe365377	-0.17805277
32	0xbc8fd321	-0.017556729
33	0x3dad5289	0.08463008
34	0x3c68f6ce	0.014218999
35	0xbe5984de	-0.21242091
36	0x3e188fcc	0.14898604
37	0x3d0e356f	0.034718927
38	0x3d310445	0.043216962
39	0x3dd6f3c4	0.10495713
40	0xbe14f6e5	-0.14547308
41	0xbdc6b4b3	-0.097024344
42	0xbdfff34f	-0.12497579
43	0xbd4e5959	-0.050378177
44	0xbd28fad7	-0.041254845
45	0x3d91703f	0.07101487
46	0x3dc2ed37	0.095179014
47	0xbe0635bd	-0.13106437
48	0x3c1e0148	0.00964386
49	0xbd596bfa	-0.05308149
50	0x3e6fc176	0.23413643
51	0xbe2ae520	-0.16688967
52	0x39ff1b46	0.0004865771
53	0x3dcf9926	0.101366326
54	0x3e190cf5	0.14946349
55	0xbd6c75a1	-0.057729367
56	0x3e1e0c82	0.15434459
57	0xbc6ec006	-0.014572149
58	0x3d1c17ce	0.03810864
59	0x3e1f61ce	0.15564653
60	0xbc874d20	-0.016516268
61	0x3e078ef8	0.13238132
62	0xbe35647c	-0.17714113
63	0xbb9a1bef	-0.004703037
64	0xbebf59ae	-0.37373108
65	0xbd06114c	-0.03273134
66	0x3d34bde3	0.044126403
67	0x3e1cf1ba	0.15326586
68	0xbc7c81f2	-0.015411841
69	0xbd91a4bb	-0.07111498
70	0xbe39a254	-0.1812833
71	0xbddc277e	-0.1074972
72	0x3d5c8098	0.053833574
73	0x3d9a1448	0.075233996
74	0xbe2eaf7d	-0.17059131
75	0x3e033e47	0.12816726
76	0xbb4bd2a9	-0.0031100905
77	0xbc964d67	-0.018347455
78	0x3d7c42ec	0.06158726
79	0x3df1f3e1	0.11814094
80	0xbdc9b2e7	-0.09848576
81	0x3debf319	0.115209766
82	0x3d16d182	0.036820896
83	0xbe460a3a	-0.19339839
84	0x3d4ac84a	0.049507417
85	0x3bb6069f	0.0055549885
86	0x3e4e08c4	0.20120531
87	0xbe24884b	-0.16067617
88	0xbe420ecf	-0.18950962
89	0x3d91b666	0.07114868
90	0xbe0d16ea	-0.13778272
91	0x3df45773	0.11930742
92	0xbe0182ef	-0.12647603
93	0x3d7d626d	0.061861444
94	0x3b769402	0.003762484
95	0xbd69ded1	-0.05709726
96	0xbbd032ea	-0.0063537257
97	0x3e1dc4b0	0.15407062
98	0xbd7453fa	-0.0596504
99	0xbda5ef11	-0.08102239
100	0x3e549450	0.20759702
101	0x3e1e109b	0.15436022
102	0x3de5dae1	0.112233885
103	0x3da18824	0.07887295
104	0xbdde0c9e	-0.1084225
105	0xbe74e9ad	-0.23917265
106	0x3cdd3caf	0.027006475
107	0xbe102b0c	-0.14078921
108	0x3d2916da	0.04128156
109	0x3e1eced1	0.15508582
110	0x3da2992f	0.07939374
111	0x3dc89a43	0.09795048
112	0x3d24b53f	0.040211912
113	0xbe27d5f4	-0.1639021
114	0xbcaf3838	-0.021389112
115	0xbd091c15	-0.033474047
116	0xbcd98e7b	-0.026557198
117	0x3dacdf80	0.08441067
118	0x3c509990	0.012731925
119	0xbdd0358e	-0.10166465
120	0x3e125dd8	0.14293611
121	0x3cd96276	0.026536208
122	0xbe0c3b15	-0.13694413
123	0x3de496e2	0.11161591
124	0xbe3de3e3	-0.18543963
125	0x3bba9075	0.00569349
126	0xbd21a66f	-0.039465364
127	0xbccaefb1	-0.024772497
128	0xbe7f5b80	-0.24937248
129	0xbd63f69f	-0.055655118
130	0xbd4f2f4b	-0.05058221
131	0xbcd76fa3	-0.02629835
132	0xbcae9d20	-0.021315157
133	0x3dcd3c2b	0.10021242
134	0xbc8a549e	-0.016886052
135	0xbd8307c0	-0.063979626
136	0x3c0076e8	0.007840849
137	0x3d86428c	0.065556616
138	0xbbbe8893	-0.0058146208
139	0x3dc109c2	0.09425689
140	0x3db50275	0.08838359
141	0xbd3496d7	-0.044089165
142	0x3e341a55	0.1758817
143	0x3df9c5fa	0.12195964
144	0xbd8c5d6a	-0.06853755
145	0xbd806abb	-0.06270357
146	0xbcec1c62	-0.028822128
147	0x3b45a2d3	0.0030156865
148	0xbcf9747f	-0.030451057
149	0xbdf2f00c	-0.118621916
150	0x3d9f54a3	0.07779815
151	0xbd6f4735	-0.058417518
152	0xbe0f5838	-0.13998497
153	0xbdc57e5d	-0.096432425
154	0xbdb6e383	-0.08930113
155	0x3e798d77	0.24370371
156	0xbd34ee39	-0.0441725
157	0x3e23985a	0.15976086
158	0xbe0bd13a	-0.13654032
159	0x3d512ece	0.051070027
160	0x3d904ecb	0.070462786
161	0xbbedef0b	-0.007261162
162	0xbd104bf0	-0.03522867
163	0xbe16badd	-0.1471972
164	0x3e650157	0.22363792
165	0x3db16bd3	0.08663144
166	0xbd219e6b	-0.03945772
167	0x3d568506	0.052372955
168	0x3e5380f2	0.20654657
169	0xbe26a4cf	-0.16273807
170	0x3d77fc8c	0.06054358
171	0xbe1007d2	-0.14065483
172	0xbd32e809	-0.043678317
173	0x3cf2f2fc	0.02965688
174	0x3dd5995c	0.104296416
175	0xbcfee0a5	-0.031112978
176	0x3cef243a	0.029192079
177	0x3ddb15a1	0.10697485
178	0xbd7f3441	-0.062305693
179	0xbe8fa8ea	-0.2805856
180	0xbda8edd6	-0.082484886
181	0x3ddb6ff3	0.10714712
182	0x3e0611e0	0.13092756
183	0xbe41450d	-0.18873997
184	0x3e227014	0.15863067
185	0xbe045a71	-0.12925126
186	0xbe357bcf	-0.1772301
187	0x3d11d25b	0.035601
188	0xbe6e55c7	-0.23274909
189	0x3db955b8	0.09049553
190	0xbda7f364	-0.0820072
191	0x3b8488fa	0.004044649
192	0xbe3742da	-0.17896596
193	0xbc9af3f9	-0.018915163
194	0x3c872828	0.01649864
195	0xbdb40f3d	-0.08791969
196	0xbc9907ab	-0.018680414
197	0x3c66fd2e	0.014098449
198	0x3d1e525d	0.038652766
199	0xbd82c7e1	-0.0638578
200	0x3d6503bf	0.055911776
201	0x3e078315	0.13233598
202	0x3e1bfecd	0.15233918
203	0xbd230e1e	-0.039808385
204	0x3e0c9795	0.13729699
205	0x3d33510d	0.043778468
206	0x3d9889a2	0.074481264
207	0xbd5226ae	-0.05130642
208	0xbe3a0a7e	-0.18168065
209	0xbdb00e07	-0.085964255
210	0x3d8cd205	0.068759955
211	0xbad328d7	-0.0016110194
212	0xbd64b8ee	-0.055840425
213	0x3d90be44	0.0706754
214	0x3de4f121	0.11178804
215	0xbd55087e	-0.052010052
216	0xbde909f0	-0.113788486
217	0x3e296483	0.16542248
218	0xbe535c4e	-0.2064068
219	0xbd2a3404	-0.041553512
220	0x3da13013	0.078704976
221	0xbe07c685	-0.13259323
222	0x3dda9a8a	0.10674007
223	0x3d0b7f91	0.034057204
224	0xbc5700ce	-0.01312275
225	0xbc97d1c7	-0.018532647
226	0x3b08533d	0.0020801567
227	0xbdae57c4	-0.08512834
228	0xbe00330e	-0.12519476
229	0xbd72de21	-0.05929387
230	0x3e0f7b1a	0.14011803
231	0x3e289aa7	0.16465245
232	0x3e1e4c7a	0.15458861
233	0xbc5f5fad	-0.013633651
234	0xbe2bba58	-0.16770303
235	0xbdc67d59	-0.09691877
236	0xbbdda4ab	-0.0067640147
237	0xbc66d8bf	-0.014089762
238	0xbccf0702	-0.025271896
239	0xbdd33ed0	-0.10314715
240	0x3e109848	0.1412059
241	0xbd01191d	-0.03151809
242	0x3d970a70	0.07375038
243	0x3b8b86bb	0.0042580045
244	0xbd1d6cfd	-0.038434017
245	0x3e0bc867	0.13650666
246	0x3d79b5ca	0.060964383
247	0xbc647e90	-0.0139461905
248	0xbce91cc6	-0.028456103
249	0xbd065cee	-0.03280347
250	0x3e22e511	0.15907694
251	0x3d223dea	0.039609827
252	0x3dc8a7c3	0.09797623
253	0x3e1faaad	0.15592451
254	0xbdddf314	-0.10837379
255	0x3d323228	0.043504864
